app/src/main/ml/Model_Quality_Condition.tflite (tflite, 181520 bytes, 14 tensors)

sequential/dense_1/BiasAdd/ReadVariableOp f4 [128]
00000000: b7c1 a2bc d58a 7a3e b3a5 5a3e c01e a5bb
00000010: 780c 92bc 791f f93d 08dd 15bc abfa 58bc
00000020: d5b3 babb 0000 0000 0000 0000 0000 0000
00000030: 81ba 82bb 1190 52bd 6ef2 94bc 8511 43bd
00000040: d3fe efbb 7b91 cbbc 3740 7bbd bfba c4bb
00000050: 6030 8fbd e45a 78bd 0bf9 f6bb 7022 373e
00000060: 0000 0000 beeb 933b 84cb 9bbc 92eb 683e
00000070: e7b7 adbb 2778 a5bd c522 573e 0a8e 643e
00000080: b25d 483e fb5f 3e3a 3353 e6bb 3ec0 c4bb
00000090: 1725 6d3e 4ae8 88bd 8314 90bc 0547 dcbb
000000a0: d18f 03bc 9866 753e e769 68bd e088 5d3e
000000b0: da74 633e 0000 0000 ca2c b7bb 0000 0000
000000c0: ff7f 0abc 0000 0000 17a4 02bd 1463 f9ba
000000d0: 43c2 c4bb 0000 0000 aff3 30ba d4e1 60bc
000000e0: 147c 163d 3392 c8bb dbe6 89bc 70f0 9dbc
000000f0: 0ba3 bcbc 2f0b de3d da64 81bd fd6e 84bd
00000100: d66f 0fbd 0000 0000 404e 603e 2641 6b3e
00000110: 0000 0000 d2b6 97bc 0436 b7bd 44bc 83bd
00000120: 2d53 eabc 9455 d0bb dcb5 7fbd 0000 0000
00000130: 13f5 28bd e040 94bb 0000 0000 3965 8bbc
00000140: 4b78 b6bb eb35 aebb a588 b3bd 6644 abbb
00000150: 67cb 06bc 0000 0000 7b93 a23d eeea 7cbd
00000160: 6ec8 813e 504e 2a3e f67e a6bc 381c 683e
00000170: d052 6b3e afbb ae3c 0000 0000 399d 97bc
00000180: 0000 0000 5101 98bd 2dfb 4fbc 7adb 5abd
00000190: 86fa 80bd 0000 0000 4c19 cf3d c836 92bd
000001a0: 0000 0000 6a1b 67bd 31d7 683e d983 74bc
000001b0: 0751 cfbc 967d 08bd 7920 7ebd 0000 0000
000001c0: 0000 0000 7f04 33bd 6506 4dbc 030c 86bc
000001d0: c7b0 b5bd 1cd8 dcbb bd56 3dbc bd0a 83bd
000001e0: 210c 78bd 060d 6f3e 0000 0000 27d9 8a3e
000001f0: fa09 62bd 0000 0000 08cd 19bd 6b77 94bc
-0.019867761 0.24467023 0.21352272 -0.005039066 -0.017828211 0.12164206 -0.009146936 -0.013243358
-0.005697707 0.0 0.0 0.0 -0.003989518 -0.051406924 -0.018182006 -0.04762413
-0.0073240786 -0.024849644 -0.061340537 -0.006003707 -0.06991649 -0.060633555 -0.0075370125 0.1788423
0.0 0.0045141866 -0.019017942 0.22746113 -0.005301464 -0.08079558 0.21009357 0.22319809
0.19566992 0.0007262227 -0.007028961 -0.0060043624 0.2315868 -0.066849306 -0.017587906 -0.0067223334
-0.008029894 0.23964918 -0.05674162 0.21634245 0.22212544 0.0 -0.005590056 0.0
-0.008453368 0.0 -0.03189477 -0.001902672 -0.006004603 0.0 -0.0006750179 -0.013725717
0.036739424 -0.006120944 -0.016833713 -0.019279689 -0.023026964 0.10841977 -0.06318064 -0.06466482
-0.035018764 0.0 0.2190485 0.22974071 0.0 -0.018519793 -0.089458495 -0.06432393
-0.028604114 -0.006357858 -0.062429294 0.0 -0.041249346 -0.0045243353 0.0 -0.01701604
-0.0055685393 -0.005316486 -0.08766297 -0.0052266596 -0.008227206 0.0 0.07938286 -0.061747484
0.25348228 0.16631436 -0.020324212 0.22667015 0.22980809 0.021329729 0.0 -0.018507587
0.0 -0.07422126 -0.012694162 -0.053431965 -0.062977836 0.0 0.10112247 -0.07139355
0.0 -0.05642263 0.22738339 -0.014924013 -0.025307192 -0.033322893 -0.062042687 0.0
0.0 -0.04370546 -0.012513732 -0.01636315 -0.08871608 -0.0067396294 -0.011556325 -0.063985325
-0.060558442 0.23344812 0.0 0.271188 -0.055185296 0.0 -0.03754905 -0.01812335

sequential/dense_2/BiasAdd/ReadVariableOp f4 [64]
00000000: b861 8abd 51b8 f2b9 1a6d 7d3c 2302 f63d
00000010: 0b05 13bd 0000 0000 0000 0000 498f 87bb
00000020: 1e0f cabb 2e0d ffba 88de 88ba 45e5 193e
00000030: 0000 0000 3dee 723d c6b2 6b3d 59f4 0cbc
00000040: 5973 94be 32ca 023c 480c ccbb b42c b4bc
00000050: 3522 87bc 29a5 e63b 9cd3 673e ab03 02bd
00000060: 4694 33bc fdc2 4a3c 1369 aa3e 731c 06bb
00000070: aa70 dbbd a0a5 9c3e 235a 3abd a1f2 40ba
00000080: c711 813e ec98 bdbd aa2d 7d3e da47 1bbd
00000090: 8390 163e a185 9e3e 0000 0000 9175 8a3e
000000a0: 64d3 efbc 8026 18bc 5641 6cbc 869e 653c
000000b0: 286d a1bb 3bf1 743e 70ab 11bd 8fef b3bc
000000c0: 6499 8ebc e784 bdbc 46df a9bc 05c9 24bd
000000d0: cd93 2c3c 16c2 1d3d a172 093d c364 19bc
000000e0: a442 d9bc 033c a73a 0000 0000 639d d23d
000000f0: c8c9 05be 5b79 613e 74c2 07bd 6383 7ebc
-0.067569196 -0.00046295163 0.015467906 0.12012126 -0.03589348 0.0 0.0 -0.004136954
-0.006166353 -0.0019458884 -0.0010442296 0.15028866 0.0 0.059309233 0.05754354 -0.008603179
-0.28994253 0.007982777 -0.00622705 -0.021993972 -0.016495803 0.0070387316 0.22639316 -0.03174178
-0.010960644 0.01237559 0.3328329 -0.0020463734 -0.10714848 0.30595112 -0.045496117 -0.0007360373
0.25208876 -0.09257683 0.2472445 -0.03791032 0.14703564 0.30961326 0.0 0.2704282
-0.029275604 -0.009286523 -0.014419874 0.014014846 -0.0049263425 0.23920147 -0.035563886 -0.021964816
-0.017407127 -0.023134662 -0.020736348 -0.04023077 0.010533285 0.038515173 0.033556584 -0.009362402
-0.026521035 0.0012758974 0.0 0.102839254 -0.13065255 0.2201895 -0.03314443 -0.015534255

sequential/dense_3/BiasAdd/ReadVariableOp f4 [32]
00000000: 92cb 5fbc 3ae8 abbc f9ae 1f3c beae f7bc
00000010: 51ac ad3c 2b10 6d3e 2576 30bc b7e5 823e
00000020: c1c5 3fbe f820 693b 450b 9cbe e89a 803e
00000030: a2ca 233d bcf0 54bd 2f63 283d 35a0 903e
00000040: 0000 0000 ffc0 9ebd b9c4 2c3e f6a3 ab3d
00000050: 969d 293e 7df0 893b 94c5 253d 5ce9 4abe
00000060: cb76 4d3d 2d7e 16bc fd06 88be 0000 0000
00000070: 0000 0000 04cd 83be d908 00be d160 b2bc
-0.013659375 -0.020984758 0.009746307 -0.03023469 0.02120033 0.23150699 -0.010770355 0.25565884
-0.18727781 0.003557263 -0.30477348 0.25118184 0.039988168 -0.051987395 0.041110214 0.28247228
0.0 -0.07751655 0.16871919 0.083808824 0.1656402 0.0042095766 0.04047163 -0.19815582
0.050162118 -0.009185356 -0.26567832 0.0 0.0 -0.25742352 -0.12503375 -0.021774681

sequential/dense_4/BiasAdd/ReadVariableOp f4 [16]
00000000: 1bc1 a53e c607 b0bc 4e56 b8be d88c 23bd
00000010: 62a7 483d fa15 07bd ae46 6d3d 319c 6bbc
00000020: 87e8 1a3e 4ca3 383d a41c 04bd 998a acbd
00000030: 540a 80be 25c0 a13b 0000 0000 0000 0000
0.3237389 -0.021488082 -0.36003345 -0.03992924 0.048987754 -0.032979943 0.057928734 -0.014380501
0.15127765 0.045077607 -0.032253876 -0.08424873 -0.2500788 0.0049362355 0.0 0.0

sequential/dense_5/BiasAdd/ReadVariableOp f4 [8]
00000000: ac61 1a3e 9e66 ddbd c857 483e 311c 79bd
00000010: cefe 00be 7864 0cbd 35da 87be d792 1b3e
0.15076321 -0.10810588 0.19564736 -0.0608179 -0.125972 -0.034275502 -0.26533666 0.15192734

sequential/dense_6/BiasAdd/ReadVariableOp f4 [5]
00000000: 82df 513e a0ed c4be aa11 ad3d f70f 293e
00000010: 43c0 30be
0.20495418 -0.38462543 0.08450635 0.16509996 -0.17260842

sequential/dense/BiasAdd/ReadVariableOp f4 [256]
00000000: 0000 0000 7f38 57bd 5031 e9bc 800c 08bd
00000010: 0000 0000 a1c0 c4bb 9729 03bd 0000 0000
00000020: b8ed fabc 56e7 2e3e debf eabc 0000 0000
00000030: c064 f6bc b9d8 3dbc 472d bc3c ea6a f6bc
00000040: bf3a d5bc 0000 0000 6a62 12bd 0000 0000
00000050: 1905 eebc 0000 0000 5c41 50bd 0000 0000
00000060: c5ea f13c 0000 0000 3ee0 c6bc c883 5abd
00000070: 0000 0000 0000 0000 89ad a0bd 9ff3 babd
00000080: 0000 0000 0000 0000 9e2b 6ebc 0000 0000
00000090: 90bc c4bc 1766 38bd b3a9 11bd 5d09 1f3e
000000a0: 0000 0000 0000 0000 c192 00bd 0000 0000
000000b0: edff 29bd 0000 0000 0000 0000 e903 05bc
000000c0: 0000 0000 0000 0000 73f5 f63b 0000 0000
000000d0: 0000 0000 2478 c5bb 0000 0000 4552 c9bc
000000e0: 9737 b6bc dd4c b9bd 9b3c b1bd 0000 0000
000000f0: 8f70 1bbd 0000 0000 9fae b4bc 8c55 6abb
00000100: c3ef e1bc 76ee 37bd c847 213d 8afe ab3d
00000110: 0000 0000 d480 febc 1e96 0bbd 2c60 14bd
00000120: 975b e7bc 0000 0000 5e6a ccbc d0ab d4bc
00000130: 5225 fcbc d41d bebd 0000 0000 d197 4dbc
00000140: 0000 0000 0000 0000 634d 06bd 921a 21bd
00000150: 822d c7bc 2112 2bbd 0000 0000 154a bbbc
00000160: d6ac 493e 66d4 41bd 459d 5fbc 0000 0000
00000170: 77da c7bc 0000 0000 0000 0000 a9c5 0abc
00000180: 0000 0000 0000 0000 758d 9bbd 0000 0000
00000190: 0000 0000 b9ef 09bd a8e7 22bd 0000 0000
000001a0: 0000 0000 1f9a e1bc 0000 0000 0000 0000
000001b0: 0000 0000 0000 0000 c402 0ebd 0000 0000
000001c0: 60f4 f8bc 0000 0000 df4d b1bc 0000 0000
000001d0: 0000 0000 0000 0000 6bc0 54bd 0000 0000
000001e0: 0000 0000 0000 0000 2abb b4bd 57ec b1bc
000001f0: 6dfb 0ebd ea63 aebc 0000 0000 0000 0000
00000200: 3561 e9bc 0000 0000 6b47 4dbd eec2 31bd
00000210: 286b a9bd 5c36 2a3d 0000 0000 0000 0000
00000220: 1566 ccbd 988a 98bd 0000 0000 0000 0000
00000230: 0000 0000 afad dabc a8e9 d9bb 0000 0000
00000240: 0000 0000 9c47 c3bc 0000 0000 85a6 58bd
00000250: 0000 0000 5e64 0cbd a472 233e 0000 0000
00000260: 0000 0000 b8f4 31bd 0000 0000 1ecf bcbc
00000270: 0000 0000 0000 0000 663c ab3d 0000 0000
00000280: 0000 0000 5015 8ebc 0000 0000 0000 0000
00000290: 0000 0000 0000 0000 04dd fd3d 200b c5bc
000002a0: 0000 0000 0000 0000 0000 0000 84d6 e8bc
000002b0: de66 17bc 8f74 2cbd 9263 6cbc 0000 0000
000002c0: 9fb2 eabb 0000 0000 0000 0000 0000 0000
000002d0: 0000 0000 0000 0000 ce2c 0e3e 42d8 7b3a
000002e0: 0000 0000 0000 0000 0000 0000 0000 0000
000002f0: 19eb 983d 0000 0000 a152 8dbb 0000 0000
00000300: aedb f3bc 0000 0000 b5a4 fcbc 0000 0000
00000310: 0000 0000 fb66 35bd 0000 0000 8c40 c9bc
00000320: 0000 0000 0000 0000 54f1 dbbc b3ca aa3d
00000330: e3e5 cbbc 0000 0000 814e 12bd 0000 0000
00000340: c03d 0abc 90bd ccbc e3ee d6bc 0000 0000
00000350: 8dc9 bcbd 8724 4abd 0000 0000 0000 0000
00000360: 8f02 12bd 540b 05bd 4174 cabb 3349 3bbd
00000370: 0000 0000 02f9 b53c 0000 0000 6006 7d3c
00000380: 3e9e a7bd 0000 0000 0000 0000 496a 28bd
00000390: 0000 0000 2eaa 193e 0000 0000 511f c9bc
000003a0: 3a38 eabc 0000 0000 0000 0000 0000 0000
000003b0: 0000 0000 3b5c bdbc cd65 03bd 0000 0000
000003c0: 0000 0000 de6f 393e 0000 0000 1e08 08bd
000003d0: 0000 0000 0000 0000 0000 0000 928c d1bc
000003e0: 0000 0000 0000 0000 0000 0000 0000 0000
000003f0: 0000 0000 0000 0000 48af 7fbc 0000 0000
0.0 -0.052544113 -0.028465897 -0.033215046 0.0 -0.0060044085 -0.032022085 0.0
-0.030630931 0.17080435 -0.028655943 0.0 -0.030077338 -0.011587315 0.022970809 -0.030080277
-0.026028989 0.0 -0.035738386 0.0 -0.029055165 0.0 -0.05084358 0.0
0.029530892 0.0 -0.024276849 -0.053348333 0.0 0.0 -0.07845599 -0.09128498
0.0 0.0 -0.014536766 0.0 -0.024015695 -0.045019235 -0.03556223 0.15530916
0.0 0.0 -0.031389955 0.0 -0.041503835 0.0 0.0 -0.008118608
0.0 0.0 0.007536584 0.0 0.0 -0.006026285 0.0 -0.024575362
-0.022243304 -0.09047864 -0.08654138 0.0 -0.03794914 0.0 -0.022055922 -0.0035756556
-0.027580148 -0.04490515 0.039375097 0.08398159 0.0 -0.03106729 -0.03407871 -0.03622453
-0.028241916 0.0 -0.024953064 -0.025960833 -0.030779514 -0.09283033 0.0 -0.012548403
0.0 0.0 -0.032788645 -0.03933198 -0.024313692 -0.041765336 0.0 -0.022862474
0.19694838 -0.0473217 -0.013648336 0.0 -0.024396164 0.0 0.0 -0.008469977
0.0 0.0 -0.0759534 0.0 0.0 -0.033675883 -0.039771706 0.0
0.0 -0.027539311 0.0 0.0 0.0 0.0 -0.034670606 0.0
-0.030389965 0.0 -0.021643577 0.0 0.0 0.0 -0.051941317 0.0
0.0 0.0 -0.08824761 -0.021719141 -0.034907747 -0.021287877 0.0 0.0
-0.028488735 0.0 -0.050116938 -0.04339879 -0.082723916 0.041555747 0.0 0.0
-0.09980408 -0.0744831 0.0 0.0 0.0 -0.026694147 -0.0066501684 0.0
0.0 -0.023837857 0.0 -0.05289318 0.0 -0.034275405 0.159617 0.0
0.0 -0.043446273 0.0 -0.02304798 0.0 0.0 0.083611295 0.0
0.0 -0.017344147 0.0 0.0 0.0 0.0 0.12395671 -0.024053156
0.0 0.0 0.0 -0.028422602 -0.009240834 -0.042103346 -0.014428036 0.0
-0.0071624066 0.0 0.0 0.0 0.0 0.0 0.13884279 0.0009607115
0.0 0.0 0.0 0.0 0.07466716 0.0 -0.0043128286 0.0
-0.029767837 0.0 -0.030840257 0.0 0.0 -0.044287663 0.0 -0.024566911
0.0 0.0 -0.026848473 0.08339443 -0.024889892 0.0 -0.0357194 0.0
-0.008437574 -0.024992734 -0.026236957 0.0 -0.0921813 -0.04935124 0.0 0.0
-0.03564697 -0.032481506 -0.0061784093 -0.045724105 0.0 0.022213463 0.0 0.015443414
-0.08184479 0.0 0.0 -0.041116986 0.0 0.15006325 0.0 -0.024551066
-0.028591264 0.0 0.0 0.0 0.0 -0.023115268 -0.032079507 0.0
0.0 0.1810908 0.0 -0.033210866 0.0 0.0 0.0 -0.025579724
0.0 0.0 0.0 0.0 0.0 0.0 -0.015605755 0.0

sequential/dense/MatMul f4 [256, 1]
00000000: 23bb 0cbe 2cd1 913e 45c9 863e 042e a53e
00000010: 7ba5 ebbd 5639 9ebb 5ede 9f3e f35e e2bd
00000020: a2f1 953e 74e2 2e3e fb67 873e e67c 6ebd
00000030: 60bb 923e a97d 563e 2c07 173e 56de 903e
00000040: ca4f 7b3e 6bc4 c2bd c90b af3e 6024 4fbd
00000050: 6af1 8e3e c8ec cebc cac9 8d3e 1c23 2dbd
00000060: 4f88 683e e005 05bc 76d0 8f3e ab23 953e
00000070: 08a5 d6bc 98a0 cbbc c9f9 153e 952d 2e3e
00000080: 72eb dbbd bc54 0cbd 50d9 cb3b bf8b 88bd
00000090: bb85 8d3e 1d03 7a3e 3e4b af3e cac4 7b3d
000000a0: fa5c 17be a223 a2bd 1eb6 983e 5649 14be
000000b0: 648b 683e 3626 08bd 238f 1bbe b3c0 47bb
000000c0: 61f3 a0bd b325 01be 382e a23d 7a72 14be
000000d0: f01f 2cbc 810b 50bb 72f7 d9bd f99c 693e
000000e0: b740 503e 8132 303e e217 253e 2bec a6bd
000000f0: 7cda 513e aa2f 8abd f4f0 4e3e 80d5 2abc
00000100: 5248 833e 513d 7b3e 3e1a c83d 971b a23d
00000110: b37d 93bd 7081 923e e7fe a53e d655 d43d
00000120: 422e 3f3d 43fe e0bd 5be3 703e 8bd8 753e
00000130: 5a8a 943e 9063 313e 8c77 09bd bdcf a43b
00000140: b011 8dbc 14d3 e5bd 1c13 a03e ea47 5c3e
00000150: 0a18 953e 0a3d 6a3e 088e 6cbd 3a59 563e
00000160: 1d9a 12bd eee2 833e 8e08 6f3d 9908 afbd
00000170: 3bd2 653e 0452 23bd 383f 19be 22e9 45bb
00000180: 8447 c3bd c843 e8bd fe29 113e 2bc3 04be
00000190: 8cd2 f6bd c6be a53e 97f4 5d3e c767 d4bd
000001a0: e274 c4bd eb13 843e d006 38bc 14b5 76bd
000001b0: 3ff0 0ebe 283a dfbc b3d4 ac3e e4b1 61bd
000001c0: 393a 963e 8181 80bd 7ae0 4a3e babf 80bd
000001d0: 8e6c 4dbd 00c9 c1bc fa34 913e a773 e9bd
000001e0: 77e8 19be 70ee a2bc b0c0 283e 247a 4b3e
000001f0: eeb3 a43e 6d6b 463e af57 81bd 4d98 a3bd
00000200: b73b 8a3e e490 17be 3347 153e 3425 723e
00000210: 449b 1d3e 0c29 c93d 648a c6bd f074 bebc
00000220: 46cb 3e3e 5d88 d83d 2584 cbbd 0065 0abe
00000230: 5422 8ebd e745 7c3e 0adc 843b 1e60 32bd
00000240: 81b4 03be 1164 623e 8661 40bd 4411 933e
00000250: 146e 51bd 5131 ac3e 9d8c bb3d a0c7 d0bd
00000260: 9080 98bc 6d83 723e d040 06be f2f6 313e
00000270: e052 97bc ba6b 2dbd 0e69 2c3e d239 3ebd
00000280: cc9b afbd 3338 093d ec84 e5bc 8108 c5bd
00000290: ed71 e8bd d06d 0fbd c008 473d eb12 643e
000002a0: 4cf1 08be 2868 d5bc 077e 8cbd 9d99 9a3d
000002b0: 3a5a 1dbb 62f2 6a3e 336b 9a3e 551f 11be
000002c0: 4d0d d63b 0746 0dbe c0d0 efbb c00b bebd
000002d0: 4c64 e9bd 6e2d b5bd 9b5c 103e 1d77 613e
000002e0: 2041 19be c6c8 dfbd c82f 02be 253c 12be
000002f0: 890c 533d 49b8 14be c58e 5dbb 08cd d9bc
00000300: 695a 903e c459 b6bd dee4 963e a6b0 a5bd
00000310: ee97 96bd 3981 773e 3241 eebd 7691 683e
00000320: 411c 07be c0a8 2fbb f4c8 7f3e 07f3 763d
00000330: cf45 6c3e 9b49 88bd a71e ab3e d7a0 b9bd
00000340: d7ef 73bb 12af 6c3e 9a8f 763e 678b b3bd
00000350: 2414 303e 7a3b 893e d0a0 debd 90ae 7ebc
00000360: d951 3d3d d96f 983e baf9 5ebb 6508 7f3e
00000370: d0d4 3ebc 7176 be3d 01af b3bd c5f4 cc3d
00000380: d6c5 ff3d 4299 62bd 78cb f5bd f65e e93d
00000390: 1a0c c1bd 6c30 043d 0c7e d4bd d7c1 6a3e
000003a0: 7092 873e 4d50 bebd 28be a4bc ccb5 9fbd
000003b0: 7296 dcbd ff6b 353e a4a8 9e3e 58cc b6bd
000003c0: 8ebd f6bd ce2b 8b3d 1fd7 9abd 3598 a23e
000003d0: 26d1 ecbd 4352 8bbd 8060 81bb f13a 743e
000003e0: 4c2e 1ebd 2886 79bd db33 dabd 29cd 15be
000003f0: f66f dcbd 049e f5bd 5923 cb3b a04c c0bc
-0.13743262 0.28479898 0.2632543 0.3226167 -0.11506172 -0.0048286123 0.3122434 -0.110532664
0.29285914 0.17078573 0.26446518 -0.05822458 0.2865858 0.20946373 0.1474883 0.2829463
0.24542156 -0.0951012 0.3418868 -0.0505718 0.2791856 -0.02525939 0.27693015 -0.04226981
0.22708248 -0.0081190765 0.2808873 0.29128775 -0.02620174 -0.02485685 0.14646067 0.17009576
-0.10738267 -0.034260496 0.006220974 -0.066672795 0.2764109 0.2441525 0.34237093 0.06146697
-0.14781561 -0.07916953 0.29826444 -0.144811 0.22709423 -0.033239566 -0.15191321 -0.0030479848
-0.07858921 -0.12612037 0.07918972 -0.14496794 -0.010505661 -0.0031745138 -0.106428996 0.22813787
0.20337187 0.17206766 0.16122392 -0.08150514 0.20493501 -0.067473724 0.20209104 -0.010426879
0.25641114 0.24535109 0.0977063 0.079154186 -0.072017096 0.28614378 0.32421038 0.103679344
0.046674974 -0.109859966 0.23524229 0.24008386 0.29011804 0.17323136 -0.033561274 0.005029647
-0.017220348 -0.112219006 0.3126458 0.21511808 0.29119903 0.22874847 -0.05775264 0.20932475
-0.035791505 0.2575907 0.058357768 -0.08546562 0.22443478 -0.039873138 -0.14965522 -0.0030198772
-0.09535125 -0.11341053 0.14176175 -0.12965076 -0.120518774 0.3237211 0.21675335 -0.103713565
-0.09592606 0.25796446 -0.011232093 -0.060231283 -0.13958834 -0.02724941 0.33756027 -0.05510129
0.29341295 -0.06274701 0.19812194 -0.06286569 -0.050152354 -0.023655415 0.2836073 -0.11399012
-0.15030085 -0.019889086 0.16479754 0.19870812 0.32168525 0.19376917 -0.063155524 -0.079880334
0.26998684 -0.14801365 0.14577942 0.23647004 0.1539126 0.09822282 -0.09694365 -0.02324912
0.1863223 0.10572884 -0.09937314 -0.13515091 -0.06940141 0.2463604 0.004054551 -0.043548696
-0.12861826 0.22108485 -0.046968006 0.2872411 -0.05113037 0.33631375 0.09157679 -0.101943254
-0.01861599 0.23682947 -0.13110662 0.17379358 -0.018472135 -0.042339064 0.1683695 -0.04644186
-0.08574638 0.03350086 -0.028017484 -0.096207626 -0.113498546 -0.035016835 0.04859233 0.22272842
-0.13373297 -0.026050642 -0.06859975 0.07548831 -0.0024010078 0.22944024 0.30159912 -0.14172108
0.0065323473 -0.13796245 -0.007318586 -0.09279585 -0.11396083 -0.08846556 0.14097826 0.22018094
-0.1496625 -0.10926966 -0.1271354 -0.14280756 0.051525626 -0.14523424 -0.003380702 -0.026587024
0.28193977 -0.0890384 0.29471487 -0.08090334 -0.07353197 0.24170388 -0.11633529 0.22711739
-0.13194372 -0.0026803464 0.24979001 0.060290363 0.23073505 -0.06654664 0.33421823 -0.09063881
-0.0037221813 0.23113659 0.24078217 -0.08766823 0.17195183 0.2680319 -0.10870516 -0.015544549
0.046220634 0.29772833 -0.003402336 0.24905546 -0.011647418 0.09299935 -0.08773614 0.100076236
0.12488906 -0.05532194 -0.12001699 0.113950655 -0.09426136 0.03227274 -0.10375604 0.22925507
0.2647891 -0.0929266 -0.020110205 -0.07798347 -0.10770883 0.17716978 0.30988038 -0.08925694
-0.120478734 0.067954645 -0.07560562 0.3175675 -0.115633294 -0.068027996 -0.0039482713 0.2385061
-0.03861837 -0.060918957 -0.10654422 -0.14629044 -0.10763542 -0.1199303 0.006199282 -0.023474038

sequential/dense_1/MatMul f4 [128, 256]
00000000: f898 723d e00c 6abc 94e8 adbd 9c69 dfbd
00000010: 407c 09bd 609e 483d 68f6 8b3c 281e 7fbd
00000020: 5078 0abd 8947 3fbb 889d 37bd 68ad af3d
00000030: 98e8 0bbd 6bfc f1bd 760c 18bd 7880 76bd
00000040: 1415 a0bd f48e 8cbd ceeb 9abd 9471 883d
00000050: 301b dabc 48c2 ee3d f0ee 60bd 00a1 3d3d
00000060: 6b2d 07be 407d 01bd 3762 6abd b0b3 40bd
00000070: 30c5 563d 7884 f6bd 7039 df3c ccd3 eb3d
00000080: 708b ffbc 1c3c d73d b07d fa3d 2496 a4bd
00000090: 67e0 5b3d 8078 09bd 61a2 dcbd 2563 97bc
000000a0: c083 b33d dca1 ccbd b03e d23c e420 f23d
000000b0: 58c5 04bd 6429 cbbd 3c89 973d a078 9ebd
000000c0: b8cd ad3d d08c 2f3d 2701 84bd b898 c73d
000000d0: 88b0 8f3d b03e 5fbd a0f2 5f3d 046a 04be
000000e0: dca0 dc3d 6076 323d 2823 babd 50a1 8ebc
000000f0: b84c 2b3d 00cc aebc 3ccc a93d b8e1 b13d
00000100: b4d6 0d3d d415 de3d f4cc cc3c 3b38 81bc
00000110: 9077 ac3d 3004 dabd acba 86bd 2f85 7f3d
00000120: 070b a03d 00c0 143b e0b0 943d 40bc be3d
00000130: d8b0 cb3d f087 3d3d 30fb aebc 1008 7ebd
00000140: c012 04bc 6027 46bc 0085 083b 80e6 a4bb
00000150: 9330 3dbd 0003 833b 9844 de3d 7861 ac3d
00000160: c651 c13d ec3a 9f3d f332 0bbe e8da 75bd
00000170: 00c6 80bb a04c edbd c815 d83d dc42 d4bd
00000180: a826 933d e052 653d 5423 af3d 00d9 d63c
00000190: 7475 ca3d 00dd 693c 68b6 af3d f81b 7f3d
000001a0: 20a3 4a3d 40be cfbc f873 c23d d8cb 15bd
000001b0: 90ec 06bd c06c 963c 1e9a 5f3d 2c54 e3bd
000001c0: 7042 dfbd c80b e1bd 4022 76bd 0083 42bc
000001d0: 003c 1dbb 3cdd 8e3d 6460 a5bd f851 fa3d
000001e0: 346b 8e3d 1c64 d93d 20ba 1dbd 60c5 923d
000001f0: b897 883d b819 b9bd c892 debd 64f6 9b3d
00000200: 34d3 cabd 206d 663d daa7 f5bb 5034 82bd
00000210: 3049 e83d a3ec e2bc 6c16 8e3d 8091 f6bc
00000220: 74de e1bd 73af f4bc c016 233c 588d 083d
00000230: f45e e13d 5c12 883d e05b 023d 2868 60bd
00000240: 38b4 913d 603a 1f3c 04bd c0bd 3828 20bd
00000250: a019 523c e83b b43d 3513 7c3d 8046 e03c
00000260: 682d 4ebd 808c a13b b0ef d9bc 20e6 1b3d
00000270: d45a 8fbd 7053 d33c 35c9 613d 40e7 c93b
00000280: 9425 a23d 2052 be3c 8000 debd 0074 95bc
00000290: e846 903d b8ce 68bd 3291 0fbd a019 afbd
000002a0: 3809 853d b048 18bd 3085 19bd c794 fdbc
000002b0: 809b 923d 403d d03c b103 acbd 844c abbd
000002c0: d823 183d d4fd b73d 40a3 693d 0ccb d43d
000002d0: 08c0 e4bd 5491 8b3d 90bb dd3c c1fb f7bc
000002e0: c031 9cbd a085 e0bd 209e 003c 7ce5 893d
000002f0: e8be a8bd 8052 7b3d 1070 f3bc 80b4 39bd
00000300: a0aa f63c b8f6 4e3d 8045 e2bd 18ef 30bd
00000310: a061 bbbd e82d 3f3d f04e e23c 3d2d b2bd
00000320: 305f 09bd d8ae d03d e0f5 d93c af89 673d
00000330: 2fa0 c43d 0825 e2bd 282e 853d 605d 62bd
00000340: 8881 53bd 2cd2 f83d d87b 333d c0a1 2ebd
00000350: d4bd 9d3d 00e7 75bc 88cc fb3d 70da 133d
00000360: 8ae1 9dbd acf8 b53d 0084 7a3a 8094 c23c
00000370: 70e1 ecbc 0aff 26bd 34ca 863d 3528 a33d
00000380: 51b9 813d 9cf2 9ebd c086 43bd 8d72 3c3d
00000390: 7059 46bd 48bc 813d 10cf 42bd b001 a5bc
000003a0: 48a7 d73d 80fa 183b 74d5 ae3d 00fc fd39
000003b0: 84b2 ee3d 1892 b4bd d033 9bbc 30c1 6a3d
000003c0: 0017 90bd d2c2 f9bd b891 08bd feaa 1fbd
000003d0: 205a 5ebd b89e 463d 1c8c 8bbd c886 b63d
000003e0: a891 dabd 00b6 15bb f09e 953d d876 5d3d
000003f0: b01a 8d3d f821 7a3d 74c5 a33d 20d5 e13c
0.059227914 -0.014285296 -0.084916264 -0.10908815 -0.03356576 0.048979163 0.01708527 -0.06228462
-0.033806145 -0.0029186925 -0.044827968 0.085779965 -0.034157366 -0.11815723 -0.03712126 -0.06018111
-0.0781652 -0.06863204 -0.075645074 0.06662288 -0.026624292 0.1165815 -0.05491537 0.04629612
-0.1320092 -0.03161359 -0.05722257 -0.047046363 0.052434146 -0.12036985 0.027249068 0.115150064
-0.031194419 0.10509512 0.12231004 -0.080364496 0.053680804 -0.033562183 -0.10773159 -0.018479893
0.08765364 -0.0999181 0.025664657 0.1182268 -0.032414764 -0.09920004 0.07399222 -0.07737851
0.08486503 0.0428589 -0.06445532 0.09745926 0.070160925 -0.054503143 0.054674745 -0.12931067
0.10772869 0.043569922 -0.09088737 -0.017410904 0.04182121 -0.02133751 0.08290908 0.086856306
0.034628585 0.10844007 0.025000073 -0.015773883 0.08421242 -0.1064533 -0.065785736 0.062382873
0.07814603 0.0022697449 0.07260299 0.093132496 0.0994584 0.04627222 -0.02136001 -0.062019408
-0.008061111 -0.012094349 0.0020831227 -0.0050323606 -0.046188902 0.0039981604 0.10852927 0.08417028
0.09439425 0.0777491 -0.13593654 -0.06002322 -0.0039298534 -0.11586881 0.105510294 -0.10364315
0.071851075 0.05598724 0.0855166 0.02622652 0.09885684 0.014273882 0.08579713 0.062282532
0.049471974 -0.025359273 0.094947755 -0.036571354 -0.032940447 0.018362403 0.054590337 -0.11100039
-0.10901344 -0.10988575 -0.060091257 -0.011872053 -0.0023992062 0.06975791 -0.08075026 0.122226655
0.06954041 0.106147975 -0.03850758 0.071665525 0.06669563 -0.090381086 -0.1086784 0.07615355
-0.09903565 0.056256413 -0.007496816 -0.06357634 0.113420844 -0.027700728 0.069378704 -0.030098677
-0.11028758 -0.029868817 0.0099541545 0.03333792 0.11004439 0.06644127 0.0318259 -0.05478683
0.07114452 0.0097185075 -0.09411052 -0.039100856 0.012823492 0.08800489 0.061541755 0.027377367
-0.05033627 0.004930079 -0.02660355 0.03806126 -0.06999746 0.025796622 0.055123527 0.0061616004
0.07917324 0.02323252 -0.10839939 -0.01824379 0.07044774 -0.056837767 -0.03505058 -0.085498095
0.06495899 -0.037178695 -0.037480533 -0.030954732 0.071585655 0.025419831 -0.083991416 -0.083642036
0.03714356 0.08983961 0.057040453 0.103902906 -0.111694396 0.068148285 0.027066976 -0.030271413
-0.076266766 -0.10962987 0.0078502 0.06733224 -0.082395375 0.061357975 -0.029716522 -0.045338154
0.030110657 0.050528258 -0.11048412 -0.043196768 -0.0914948 0.04667464 0.027625531 -0.08700035
-0.033538043 0.10189599 0.0266065 0.05652779 0.09600865 -0.110422194 0.06502944 -0.05526483
-0.051637203 0.12149462 0.04381928 -0.042634726 0.077022225 -0.015008688 0.122948706 0.03609699
-0.07709034 0.08885321 0.00095564127 0.023752451 -0.02891609 -0.040770568 0.06581536 0.07966653
0.063341744 -0.07761118 -0.04773593 0.04600768 -0.048425138 0.0633474 -0.04756075 -0.020142406
0.10529953 0.002334267 0.08536807 0.00048443675 0.11655143 -0.08816928 -0.018945605 0.057313144
-0.07035637 -0.12195362 -0.033342093 -0.03898143 -0.05428517 0.04849121 -0.06813833 0.08912426
-0.10672313 -0.0022844076 0.073057055 0.054068416 0.06889856 0.06106755 0.079966456 0.027567446

sequential/dense_2/MatMul f4 [64, 128]
00000000: e199 b6bd 6824 1e3e 7d97 31bd 7193 a2bc
00000010: d0a5 ec3c 2926 1e3e 28ea f23c 2d06 103c
00000020: 1056 1b3e 21c4 093e 7f89 053e ba05 c1bd
00000030: bc68 3fbd 768c 953e 188f 3fbd 0259 4a3e
00000040: 1893 333e 15be 2abe bd96 e63c c57b 66bd
00000050: 767b 5b3c 136e 2c3e 8b85 c43d 60bd 03be
00000060: 087c 683d f087 6d3e e2dc b0bd 52fd a2be
00000070: 96fb bd3d 3347 b43d 8563 5ebe e262 41bd
00000080: 301a 6aba fbf9 f0bc 7928 69b9 a364 25be
00000090: 786b b6bd affb ab3d a839 27be 4190 3dbd
000000a0: e9b6 1dbe 1ee0 17be f9ca 8a3e 166a 96be
000000b0: 4aff 51be b0ba 1ebe 383a ad3d 1df5 283e
000000c0: 5995 ad3d 7058 403d b869 5abe 7150 a4bd
000000d0: bcaf 84bd 408c 9dbb 7fff 3a3c ce62 013e
000000e0: e333 673e 168b 94bd 8fdd 03bd 3e63 0a3e
000000f0: dfe9 3d3e 4ead d3bc f465 8f3e 876f 8f3c
00000100: 8997 1a3e b0dc c5bd 0b3e 25be 19ae b3be
00000110: 4746 273e c68d ae3d 87e7 1ebc 1a42 933c
00000120: 00b7 093e a35b 793d 1d9d 8c3e 694f 173e
00000130: f3d0 123e 9714 483d 1b72 b6bd ab4b 863c
00000140: fdce d2bd 7746 393d 069f 7a3e 30bd 153e
00000150: b502 9dbc 6550 073e 6427 32bc b541 c13d
00000160: 6b5e 17be 260e cdbc be52 a4bc 52f6 f33d
00000170: ef41 96be 617d 493d e23f 11be ceff 7f3e
00000180: aecf 1cbe c812 3b3d b42e 23be 989c 813e
00000190: 80f7 723e a3b5 003e ddbf 633e 2d50 a73d
000001a0: 6c1c 773d ce4d 9b3e 14f9 e2bd 07e6 97bd
000001b0: f07c f23d 608e 293e 711f 2a3d 90f7 923d
000001c0: bbc6 173e 0f3c 8a3d ec81 273e 3330 24be
000001d0: 7985 5f3e e81c c3bd 4bf0 a7bc fb9a 233e
000001e0: 0567 843c beef 85be bdcb 203e 1d86 09be
000001f0: 761d 9b3d c2fb d13d af22 893e cc77 473d
00000200: 98b1 91bd 901a fb3d abb6 293d ec2c 6d3d
00000210: 945f f13d eb60 0ebe b2c7 ddbd 5ee6 f33d
00000220: 6857 443d 2e25 11be 6a6f 933d 3462 02be
00000230: 7d29 063e 90cc 3abf 9c94 15be b6cf 09bf
00000240: 981a 893d 8507 f33c 6e6f 2abf 02bb ce3d
00000250: 76c0 dcbe 2006 d8bd d054 2a3c 5c1c 943d
00000260: e096 58bc 9dd9 b8bd b5c5 813d a5f2 083e
00000270: 7068 6a3d 93e8 0bbf ee00 bdbd 334f 6f3d
00000280: 3a2a 123d 8693 e6bd 1719 273e ffba 1c3e
00000290: 41a8 c0bc 848f c7be 8295 61bd 2dc6 183e
000002a0: 78b1 8fbd 2cf6 143e 915b b2be 6cb4 633e
000002b0: 9eb8 eabc fb07 15be e07a 0fbd 4eb0 d93d
000002c0: 7097 6cbc 7458 24be 3745 053e a231 ac3d
000002d0: 50eb 8f3d 1229 84bd 4e4b 943d 1ca3 b7bd
000002e0: bc31 65be b89f d23c 2cc7 a83d 5364 173e
000002f0: 02da 16bd 18a1 96bb 3a2f 25bf 3dc3 c2be
00000300: 992e bbbe 4f87 093e 1904 ee3d fea6 0c3e
00000310: f2a5 983d 09d0 873d a423 39be c401 e9be
00000320: fa02 24be 6a01 8f3d c795 fcbe a0a9 f2bd
00000330: eb52 8abe 93a8 123e b08f 0a3c cc44 033e
00000340: c503 333e 58ce 3d3d 9bdd b6be f047 a23c
00000350: 839d 133e 15ab 343e 9a3a bbbd 99f1 09bf
00000360: d8cf 273e 586c 123d c336 29be 95d0 02bd
00000370: a9eb 03bd 7705 a93d 3d22 85bd da6c a0bc
00000380: 0214 85bd 0422 d8be 600c e2bc 1bd5 cfbe
00000390: 4e93 00bf a887 ddbc 1e8b 64be 376b 2cbf
000003a0: cebd aa3d 9e16 eebe 5cba ebbc 0574 443e
000003b0: 485e bd38 0aa1 9d3c 7f6d 21bf c07b b1bc
000003c0: 205c 5c3c 56c8 db3b 0890 d8bd be38 473d
000003d0: 5067 b8be acd7 703e a281 8fbd 26d2 34bf
000003e0: 3f4c cfbe d26d 273e 9fd5 a7bd d83a 143d
000003f0: cded 07bf a04c 32bc bde5 c1be 0d7e c0bd
-0.08916069 0.15443575 -0.04335736 -0.019845696 0.02888766 0.15444244 0.02965267 0.008790535
0.15169549 0.13453723 0.13040732 -0.094249204 -0.04673074 0.29208726 -0.046767324 0.19760516
0.1753658 -0.16674073 0.02814805 -0.05627038 0.013396135 0.16838865 0.09595784 -0.1286521
0.05675891 0.23196387 -0.0863588 -0.31833893 0.09276502 0.08802643 -0.21717651 -0.047213443
-0.0008930294 -0.029416075 -0.00022235689 -0.16151671 -0.08907217 0.08397614 -0.16330588 -0.04628015
-0.15401806 -0.14831588 0.2710798 -0.29377812 -0.20507541 -0.15500903 0.0845837 0.16499753
0.084757514 0.04695934 -0.21329391 -0.080231555 -0.06478831 -0.004807979 0.011413454 0.12635347
0.22578387 -0.07253091 -0.032193717 0.1351442 0.18546246 -0.025839474 0.28007472 0.017509235
0.15096869 -0.096612334 -0.16136949 -0.35093763 0.16335402 0.08523135 -0.009698755 0.017975856
0.13448715 0.060878407 0.27463618 0.14776386 0.1433752 0.04884776 -0.08908483 0.016393503
-0.10293386 0.045233216 0.24474725 0.1462295 -0.01916633 0.13214262 -0.010873649 0.09436361
-0.14782111 -0.02503116 -0.020058986 0.11912216 -0.29347178 0.049191836 -0.14184526 0.24999925
-0.15313599 0.045672208 -0.15935785 0.25314784 0.23727226 0.12569289 0.22241159 0.08169589
0.06032984 0.30332798 -0.11082664 -0.07416921 0.11840236 0.16558218 0.04153389 0.07176125
0.14821903 0.067497365 0.16358155 -0.16034012 0.2182826 -0.09526998 -0.020500323 0.15977089
0.016162405 -0.2615947 0.1570272 -0.13430066 0.075739786 0.10253097 0.26784274 0.04869823
-0.071139514 0.12260926 0.04143397 0.05790417 0.11785808 -0.13904159 -0.108291045 0.119091734
0.04793492 -0.14174339 0.07198985 -0.12732774 0.13101764 -0.7296839 -0.14607471 -0.53832567
0.066945255 0.029666672 -0.6657628 0.10094263 -0.43115586 -0.10548043 0.010396197 0.072319716
-0.013219565 -0.090258814 0.06336538 0.13373812 0.057228506 -0.54651755 -0.09228693 0.05842514
0.0356848 -0.112586066 0.16318165 0.15305708 -0.02351773 -0.3897668 -0.055074222 0.14919348
-0.07016271 0.14547032 -0.34835485 0.22236794 -0.028652485 -0.14553826 -0.035029292 0.106293306
-0.014440402 -0.16049367 0.13014685 0.08407904 0.07027304 -0.06453146 0.07240926 -0.089666575
-0.22382253 0.025710925 0.08241114 0.14784364 -0.036829002 -0.0045968406 -0.64525187 -0.3803958
-0.3655899 0.13430522 0.11621875 0.13735577 0.074535266 0.066314764 -0.18080002 -0.4550916
-0.1601676 0.069826916 -0.4933302 -0.1184876 -0.27016386 0.14322118 0.008457109 0.12819213
0.17481907 0.046339363 -0.35715947 0.019809693 0.14415555 0.17643388 -0.09142037 -0.53884274
0.1638788 0.035747856 -0.16524796 -0.0319372 -0.032207165 0.082529955 -0.06500671 -0.019583154
-0.06497957 -0.42213452 -0.027593791 -0.40592274 -0.5022477 -0.027042225 -0.22318694 -0.67351097
0.083369836 -0.4650163 -0.028775387 0.19184883 9.0297835e-05 0.019241828 -0.630577 -0.021665454
0.013449699 0.0067072315 -0.10574347 0.048638098 -0.3601632 0.23519772 -0.07007147 -0.7063316
-0.4048786 0.16350487 -0.08195042 0.03618893 -0.5309723 -0.010882527 -0.3787059 -0.09399042

sequential/dense_3/MatMul f4 [32, 64]
00000000: c5ac 9cbd f85a 743d 51d6 59bd 629d 11be
00000010: 38d8 923e c82e 9dbd 289e fc3d a20b 063e
00000020: 4b75 313e 3e1f 933d d436 67be a425 d43b
00000030: d0d7 11bd 2f67 17be 244c 4fbf fe25 a1bb
00000040: a6c2 5abf 2775 5a3e 0610 093e 39ec e0bd
00000050: ba94 423e 3ac8 c43d ef4f 563e d7d1 0f3e
00000060: 5b36 55be 0a22 06bd 51ef e9bd 6535 18be
00000070: 880b c53d b1d2 c53b 286c 493e 57ad 543e
00000080: 9502 323e 4ac0 11be 645b c5bd b1f1 d2bd
00000090: 8040 223e 0df1 a8bb 2806 58be 35b1 343e
000000a0: f012 1e3d 123c 40be 3cd6 023e 9d76 67ba
000000b0: 9fa8 3c3e 9cde 73bd e6f4 163e d8c3 943d
000000c0: 0a05 833d dcf0 653e bb60 fb3d e446 f2bd
000000d0: 7091 f53c 276b 9c3d 0ce7 d1bd a5d2 a13c
000000e0: dbe2 023e b946 243e a029 a93c 275e 843d
000000f0: e377 08be 646d e0bc 8620 c53d 96bd 1a3e
00000100: c8af d2bd 78f3 77be fc2a 3ebe 04f1 7bbe
00000110: 5cfa 11be f8ac f3bd 5831 213e 04e8 27be
00000120: 30e6 40be 4ddd 0d3e 88b8 d0bd 7757 363e
00000130: 30e8 093d b72a 8f3d f4c0 50be 2dde 35be
00000140: 7f4b 103e 782a 363e 68cb 5bbe 581e 80be
00000150: 2dac 29bd 74a5 6e3c d73b 17be 387e 313e
00000160: b335 453e de96 163e cd62 9c3d 1811 963d
00000170: 6e7e 16bd 20fa 4dbe de9d 12be 07ad 2ebe
00000180: 7577 4abe 1b80 15be 7db4 4d3e b9ff 56be
00000190: 5677 14be 9e83 1a3e 28fe 323e 625b 82be
000001a0: c064 43be 1a98 c93d 90eb 7a3d 4d91 48bb
000001b0: fc51 8fbd c074 d13d 98c7 743d 3cdf 33be
000001c0: 6bf4 4d3e 18db a43d 045a 53be 3f85 72bd
000001d0: 5406 74be 1701 0a3e 20bc 24be 44e6 02bd
000001e0: e010 0a3e 74b4 04be 0082 bb3d 902c ff3d
000001f0: c9d6 c73d 422e 2cbe 5a76 663e f7ac b5bc
00000200: b089 20bf af8d 143f cc5c 5ebe 102c f53e
00000210: f4db 4d3e 6874 bdbd 3036 25be 7c91 213e
00000220: c8f5 c73d 0d7f 5abd 38d5 d53d 1d0f 443e
00000230: b855 3ebe acbd 683d 1440 9a3f 302f 453e
00000240: f148 893e 7b28 81be 2a08 9d3d 3819 7c3e
00000250: 8301 343d 442c 8cbe 2155 443e 78f6 63bc
00000260: c60a 74bc b38a 0ebe 4a48 813e c091 4d3d
00000270: 2f5d fcbe 46cf a6bd e42f f2bc 1936 49be
00000280: a53a 3e3e 9c9a c6be 8efd 723e b0a6 6c3e
00000290: 2250 c5bd 4501 103d 38d3 8abd b028 fd3d
000002a0: cc03 523e ea8c c8bd a02e 8d3d 5d54 dbbe
000002b0: 8096 d0bd f3b1 b33d c443 86be 31d1 72be
000002c0: 3145 16be 7f95 08be 002a 193c e88d ea3c
000002d0: a32e a8be dd0c 92be 379a f23d 9f3d 91be
000002e0: b0de 1ebc ba21 08bd f0e0 60be af15 ae3e
000002f0: 101a 02bf 3a00 00be c678 c03d d702 01be
00000300: 972e c8bd c0d8 993d 2522 523d 6a59 50be
00000310: 10fd 0b3e 98a8 6c3e 704b 5f3e e4e7 4d3e
00000320: ec6d 7d3e a8f2 5f3e 8069 b03b 27f5 e33d
00000330: c859 e93d e815 72be a015 08be 152a 36bc
00000340: 0197 d43d d27b 0eba 9903 48bd 015a 5b3d
00000350: bba9 63be 6e12 213e cbb1 d83d 086b 12be
00000360: 41d0 e13d 625a 283d 97f6 74be 8048 b0bc
00000370: 734c f6bd a708 093b edd4 263d bff0 0f3d
00000380: b3d1 1bbe ed7f 5a3e 69c6 b0bd 2a65 2ebd
00000390: fb56 69be 1990 423e 8884 8abd 557f 1abe
000003a0: a4b7 50be 0cc9 cabd 583c 4c3e d586 85bd
000003b0: c07e 52bd 5b22 acbc 85f6 a03c 58fc 563e
000003c0: e2a4 eebd d0c7 03bd 2ccf 303e 288a 3ebe
000003d0: dbda 46be a2d6 67ba dd15 fd3d ad27 1ebe
000003e0: b8b3 023e 00cc 3abc 2817 683e fe1d 27be
000003f0: ebac 34be f47c 5c3e 2ebc 273e 6459 7bbe
-0.07650141 0.059657067 -0.053182904 -0.14220193 0.28680587 -0.076749384 0.123348534 0.13090375
0.173299 0.07183693 -0.22579509 0.0064742137 -0.035606205 -0.14785455 -0.80975556 -0.004917859
-0.8545326 0.21333753 0.13385019 -0.10982556 0.19002047 0.09608503 0.2092893 0.14044891
-0.20821516 -0.032747306 -0.11422599 -0.14864118 0.0962134 0.0060370793 0.19670165 0.20769249
0.17383797 -0.14233509 -0.09636572 -0.10300005 0.15844917 -0.0051556886 -0.21096098 0.17645724
0.03859228 -0.18772915 0.12777036 -0.00088296254 0.18423699 -0.05953847 0.14741859 0.07263917
0.063974455 0.22455162 0.12274309 -0.118299276 0.029976577 0.07637625 -0.10249147 0.019753763
0.12781851 0.16042604 0.020649731 0.06463271 -0.13326983 -0.027395912 0.09625344 0.15111384
-0.10287434 -0.2421397 -0.18571085 -0.24603659 -0.14255661 -0.118982255 0.1574148 -0.163971
-0.1883781 0.13853951 -0.101914465 0.17806803 0.033668697 0.06990569 -0.20386106 -0.17760535
0.140913 0.17789638 -0.21464312 -0.2502315 -0.041423965 0.014565814 -0.14768921 0.17333305
0.19258766 0.14705989 0.07636032 0.07327479 -0.036741666 -0.20114946 -0.14318034 -0.17058192
-0.19772132 -0.1459965 0.20088382 -0.20995988 -0.14498648 0.1508927 0.17479765 -0.25460345
-0.19081402 0.09843464 0.061259806 -0.0030604184 -0.06998059 0.102273464 0.05976066 -0.17565626
0.2011277 0.08049601 -0.20639807 -0.059209105 -0.23830539 0.13476978 -0.16087389 -0.03195788
0.13483 -0.12959462 0.09155655 0.124596715 0.09757764 -0.16814521 0.22506085 -0.022177203
-0.62710094 0.5802869 -0.21715087 0.4788518 0.20103437 -0.09250718 -0.16133952 0.15778154
0.09763676 -0.05334382 0.10441059 0.1914639 -0.18587387 0.05682151 1.2050805 0.19256282
0.26813462 -0.25226197 0.07667573 0.24618995 0.043946754 -0.27377522 0.19173099 -0.013913743
-0.014895147 -0.13920097 0.25250465 0.050187826 -0.49289843 -0.08145003 -0.029563852 -0.19649543
0.18577059 -0.38789833 0.23729536 0.23110461 -0.09634425 0.03515746 -0.06778568 0.12361276
0.20509261 -0.09792502 0.06893659 -0.42837802 -0.101849556 0.087741755 -0.26223576 -0.23712613
-0.14674832 -0.13338278 0.0093483925 0.02863212 -0.3284808 -0.2852544 0.118458204 -0.28367326
-0.0096966475 -0.03323529 -0.21960807 0.34000918 -0.5082102 -0.12500086 0.09398036 -0.1259874
-0.09774511 0.07512045 0.051302094 -0.20346609 0.13670754 0.23111188 0.21806121 0.2010799
0.24748963 0.2186991 0.0053836703 0.111307435 0.113940775 -0.23641169 -0.132895 -0.011118432
0.10380364 -0.0005435321 -0.048831556 0.05355263 -0.22232716 0.15729687 0.10580786 -0.14298642
0.110260494 0.04110182 -0.23922192 -0.021518946 -0.120263 0.0020909698 0.040730406 0.035141703
-0.15216713 0.21337862 -0.08631594 -0.042576946 -0.22787087 0.19000281 -0.067635596 -0.15087636
-0.20382553 -0.09901628 0.19944894 -0.06519858 -0.05139041 -0.021012476 0.0196488 0.20994699
-0.11652543 -0.032172978 0.1726653 -0.1860739 -0.19419424 -0.00088439335 0.12357686 -0.15444823
0.1276387 -0.011401176 0.22665083 -0.16320035 -0.17644088 0.21532041 0.16380379 -0.24545819

sequential/dense_4/MatMul f4 [16, 32]
00000000: b88e 053e 7cb2 933e 776a 0ebf fbbc 95be
00000010: c679 a33e c75f bd3e d453 a63e d76a 973e
00000020: 800e 89be a8c2 d63d 498e 0cbe fbc9 cc3e
00000030: 8bdd cb3d d036 88bd efec c83e fe4a 903e
00000040: 0b0f ab3e 3336 06bf 52c5 1b3e fe55 acbe
00000050: eff4 373e b412 03bf 1816 12be 6d34 6abb
00000060: 113a 213e 7d06 86bd 41c0 d6bd 60a3 053e
00000070: 66e6 88be 4450 94be 0120 4bbe 8020 92be
00000080: 7874 84be 6f34 623e 40d4 df3d 2763 fcbc
00000090: 1213 8e3d c44d b0be db59 d1bd 9b8b a2bc
000000a0: 2e9e 98be d6f0 7fbd eb59 983e 3f2e 853d
000000b0: 2e3f e5bd 1ffa 393f 4865 483d a975 a03d
000000c0: 2edb 213e 217b d93e b113 3bbe 80fc 873e
000000d0: d2a6 4bbe 0f6b df3e 73b0 8a3e 3c6f 8ebe
000000e0: e9b8 cc3d 395c aa3e ee9c 6b3e 82a0 32be
000000f0: e993 a33e a440 83be 47da c33c 3261 61be
00000100: 24bd 4d3e 151d 8d3e 315c 88be 8c6c 62be
00000110: c0cb f13c b747 91be f791 9bbe f74c b8be
00000120: 9b34 493e 2094 903e c72d c43e 6c5b acbe
00000130: 5337 5fbd e941 31bd a76b 8e3e 424d ecbe
00000140: efd2 47be 9533 8c3e 27c3 aebe 052c aabe
00000150: 7fd5 94be e65d 85be e014 153e dae8 a13e
00000160: d9bc 80be ed7b f73c 0c35 823e 6cfe cfbd
00000170: 361e 483e cc98 903e 029d e8bc 603c 053e
00000180: 4928 603e 03d8 15be 274c 743c 3a80 4e3e
00000190: 01d2 c3be 8c86 5f3d 37b8 1dbe 0d32 143d
000001a0: c817 b33d e691 76be 7965 80be 4a02 5b3d
000001b0: c79f 963e e349 7ebd 453a 183e 0153 45be
000001c0: 07dc b4be a991 64bd a8e1 b0be 94f3 8ebd
000001d0: 1d2e 243e 7f9a b2be 5691 36be 2ee7 343e
000001e0: bd87 86bc f7ca dcbc f8a6 9b3d f25b 6cbe
000001f0: d826 c5bd 6aed 283e af82 7fbe dbb5 3a3c
00000200: b466 463e a777 60bd 752f 86be 4322 32be
00000210: 6714 cdbd a217 593e c457 aebe 17ea 893d
00000220: 93ba d13d ea06 423e 74ba cbbe 7b57 bfbd
00000230: 35c1 573e f3e4 8abe e0d8 803e 7c6e bf3e
00000240: 4718 8f3e 60ed 19bf 4472 a23e fc99 c5be
00000250: efe6 c5bd 99d7 00bf 58f1 6c3c 5b00 a83e
00000260: e033 a33e e331 5dbe 3da0 563e bb1b 89be
00000270: 4683 473e 923c 7fbd 4f2a 893e 16ef a93e
00000280: 0cfa 953e 2738 bf3d 4307 7f3d 5d33 0dbe
00000290: 5b78 89be 5710 0dbe 3007 b13d e0e6 d0bd
000002a0: ef2b 6e3e ed55 a6be 2c79 5dbe 8850 3c3c
000002b0: d596 ff3b bd63 36be c396 cbbd c85f 4bbe
000002c0: 6c2a 95bd ae93 27be 32f1 ad3d d0ee 48be
000002d0: 96d0 84be 8d79 b13e 028e edbd 5ddb 11bd
000002e0: 7041 3bbe f0a8 243d e789 883e f2b4 3fbe
000002f0: 50a5 5bbd cf40 8f3d 2bd6 b7bd 10f7 9ebd
00000300: fadf 093d 6a65 17be 3a49 663e 4bde 983e
00000310: e2d0 9abe 0527 e13d b23d 8ebe b07c 8e3e
00000320: 9c43 acbe fd3e fb3d 6ac8 c43d 6539 c53e
00000330: e95a 9d3e 32b9 1c3e 2de6 963e b2cf 9ebc
00000340: 42f6 a9be 8c7c f0be d558 6bbe 1167 733e
00000350: a8d4 373e 313b 0bbf 089b 233d f950 92be
00000360: bd46 47be d455 20be e7e6 6c3e fc00 96bd
00000370: 8a07 aabe eaf9 33be eff8 733e 63d3 a93d
00000380: 792b 8fbe f522 b7bd e25f 473f 3bed b5bd
00000390: 1fc9 12bd 09e7 893e 97bc a8be 6fff 603e
000003a0: e28f 0b3c c2d9 c9be 4159 84bb bedb adbe
000003b0: 4d9f 903e a439 a33e 3c3f 5bbe f3b2 893e
000003c0: 93ac 9d3e 82f5 0ebf 82a9 67bd 2fa8 663f
000003d0: 737c cc3e 0ad3 4fbf 8a48 833e 56b8 9d3e
000003e0: b9a1 143d 23e5 44be 9176 223e 0848 5cbd
000003f0: bd7e 913e 27fe 5b3e fb41 12be 859e 893c
0.13042724 0.2884711 -0.556312 -0.29245743 0.31928843 0.36987135 0.3248583 0.295737
-0.26768875 0.104863465 -0.13726152 0.3999785 0.09954365 -0.0665108 0.39243266 0.28182214
0.33409914 -0.5242645 0.1521199 -0.33659357 0.17964529 -0.51200414 -0.1426624 -0.0035736815
0.15744807 -0.06544206 -0.10485888 0.13050604 -0.2673828 -0.28967488 -0.19836427 -0.2854042
-0.2587011 0.22090314 0.10929155 -0.030808998 0.06937231 -0.3443433 -0.10222217 -0.01984196
-0.29808182 -0.06248554 0.29756102 0.06502961 -0.11193691 0.7264728 0.048924714 0.07834942
0.15806267 0.42476752 -0.1826923 0.2655983 -0.19887856 0.43636367 0.27087745 -0.2781924
0.09996206 0.33273485 0.23009083 -0.17444041 0.31948784 -0.25635254 0.023907794 -0.22009733
0.20091683 0.2756125 -0.26632836 -0.2211172 0.0295161 -0.28375027 -0.303848 -0.3599622
0.19648974 0.2823801 0.38316175 -0.336635 -0.05449612 -0.043275747 0.27816507 -0.46152693
-0.19514059 0.27383104 -0.34133264 -0.3323671 -0.29069135 -0.260482 0.14558744 0.31622964
-0.2514408 0.03021046 0.25431097 -0.10155949 0.19542775 0.28241575 -0.02839518 0.13011312
0.21890368 -0.14633183 0.014910734 0.20166102 -0.38246158 0.054571673 -0.15402304 0.036180545
0.0874477 -0.24079093 -0.25077417 0.05346898 0.29418775 -0.062082183 0.14865978 -0.19269945
-0.35324118 -0.055802975 -0.34547162 -0.069800526 0.16033216 -0.34883496 -0.17828879 0.17666313
-0.016422147 -0.02695225 0.07600206 -0.2308195 -0.096265495 0.16496816 -0.24952196 0.011395897
0.19375116 -0.05480161 -0.26208082 -0.17395882 -0.10013657 0.21200421 -0.34051335 0.06734102
0.10240664 0.1894795 -0.3979069 -0.093428575 0.21069796 -0.271278 0.25165462 0.3738898
0.2794821 -0.6012783 0.31727803 -0.38594043 -0.09663188 -0.50328976 0.014461838 0.3281277
0.31875515 -0.21601062 0.20959564 -0.2677897 0.1948367 -0.062313624 0.2679009 0.3319022
0.29292333 0.09336882 0.062262785 -0.13789125 -0.26849636 -0.13775764 0.08643949 -0.10200286
0.23258947 -0.3248743 -0.21628255 0.0114938095 0.007799963 -0.17811485 -0.09940865 -0.19860756
-0.07283482 -0.16364929 0.0849327 -0.1962235 -0.25940388 0.34663048 -0.115993515 -0.03560959
-0.18286681 0.040200174 0.2666771 -0.18721369 -0.05362445 0.06994783 -0.08976396 -0.07761967
0.033660866 -0.1478478 0.22488871 0.29857096 -0.3023749 0.109937705 -0.27781445 0.27829504
-0.33645332 0.122678734 0.096085384 0.3852035 0.3073342 0.15305021 0.29472485 -0.019386146
-0.33195692 -0.46970022 -0.22983105 0.23769785 0.17952216 -0.54387194 0.03994277 -0.28577402
-0.19460578 -0.15657741 0.23134957 -0.073244065 -0.33208877 -0.17575803 0.2382543 0.08292272
-0.27962855 -0.089422144 0.7788068 -0.08883139 -0.035836335 0.26934078 -0.32956383 0.2197244
0.008518191 -0.3942395 -0.00403896 -0.33956712 0.28246537 0.31879914 -0.21410841 0.2689434
0.30795726 -0.55843365 -0.05655814 0.9010038 0.39938697 -0.81181395 0.2564128 0.308047
0.036287043 -0.19228034 0.15865542 -0.05377963 0.28417006 0.2148367 -0.14282982 0.01679922

sequential/dense_5/MatMul f4 [8, 16]
00000000: fac7 6f3e 4205 d9be cb31 a1be b765 8f3d
00000010: d4c9 cb3e d3d5 69bd 2452 f93e 5404 f93e
00000020: d623 1ebe c8e7 3bbe 33e8 b03e ef3d c7be
00000030: 62f9 e53d b8da 99be 10e7 923d 8866 193e
00000040: 0f51 96be 0291 953d ea5d 2ebe 842a 4fbe
00000050: af33 ed3e cbf1 d3be 8533 0ebf a36d 13bb
00000060: 39c9 38bf 4a12 023f 81dd 3f3e 543d 553b
00000070: 185d 8f3e d229 c23e 789d 1fbe e853 2bbe
00000080: 859e 673e 0f34 45be 90ac a9bd 2e52 cabe
00000090: ee13 1d3c ecc2 a03e f2a3 823c e8da 883e
000000a0: 4384 263f 84c5 83be b00a af3d 2268 2e3f
000000b0: fa4c 6ebf de3d 15be dcab 8dbe 200c abbd
000000c0: 1f77 bd3e a7f6 b6be 7920 04bf dc30 efbe
000000d0: 43dd bbbe 2e97 bd3c 31b9 81bf 9e30 973e
000000e0: 7b78 4abf 993b 053f 1007 a43e acd6 2c3e
000000f0: 1a6b c93d 90ba 1cbe b4e4 973e 9066 a2be
00000100: 5407 07bf 189f fc3d b096 dd3e 6ca2 993e
00000110: dc6e 15bf 48b7 56be b9ba 26be cf16 e03e
00000120: eac6 c93e 645b 6ebd 0e85 a53d 363c bb3d
00000130: 0868 33be 40cf 27bf 0887 e23e dc46 c4be
00000140: ca0d 27be 38f5 2f3f 00d2 4bbc f09f c93e
00000150: c512 81be b8b5 b8be 516d 16be d4f0 af3e
00000160: 72e2 c8be 0cfc acbe 3040 70be 405f 013e
00000170: bc36 db3e 9001 02be a0c0 623e c429 863e
00000180: d18e bebe 3463 c7be 046e f13e b423 da3e
00000190: eedd 633e e477 50be f24c 8cbe 1f19 843d
000001a0: a15e 85be 5c7e d8bd 300d a3be 2d5f be3e
000001b0: 123c 373e 3a58 653e 6055 9ebd 5861 443e
000001c0: d00e b13e 6f51 de3e 56c8 5ebe 2492 f83d
000001d0: 5a4d 523e 9afa ca3e 881f 9abe a175 21be
000001e0: f1cb ebbd 664a c03e c882 ad3d 47e6 243d
000001f0: c7ba 0dbf bc7c c33e e8e2 c9be dc4d 91be
0.23416129 -0.42386824 -0.31483302 0.070018224 0.3980242 -0.057088684 0.4869548 0.48636115
-0.15443358 -0.18350136 0.34552154 -0.3891444 0.112292066 -0.30049682 0.07172978 0.14980519
-0.29358718 0.07303049 -0.17028013 -0.20231062 0.46328494 -0.4139541 -0.5554736 -0.0022495768
-0.7218204 0.50809157 0.18736841 0.0032537775 0.28000712 0.3792253 -0.15587413 -0.16731226
0.22619064 -0.1925814 -0.08284867 -0.39515823 0.009587271 0.31398714 0.015947316 0.26729512
0.65045565 -0.2573663 0.0854696 0.68127644 -0.93086207 -0.14574382 -0.2767018 -0.08351922
0.37004945 -0.35735056 -0.5161205 -0.46716964 -0.36692247 0.023143377 -1.0134641 0.2952928
-0.7909009 0.52044064 0.32036638 0.16878766 0.09834881 -0.15305543 0.29666674 -0.31718874
-0.52745557 0.12335032 0.43279028 0.3000673 -0.58372283 -0.20968354 -0.16282167 0.43767402
0.39409572 -0.058192626 0.08082019 0.09142344 -0.17520154 -0.65550613 0.44243646 -0.3833531
-0.16313854 0.6873355 -0.012440205 0.39379835 -0.25209633 -0.3607614 -0.14690138 0.34363425
-0.39235264 -0.33786047 -0.23461986 0.12633991 0.42815197 -0.12695909 0.22143793 0.2620374
-0.37218335 -0.38942873 0.47154248 0.42605364 0.22252628 -0.20358235 -0.27402455 0.06450104
-0.2604876 -0.10570976 -0.31846 0.37181988 0.17894009 0.22396937 -0.07731128 0.19177759
0.34581614 0.43421504 -0.2175611 0.12137249 0.2053732 0.3964432 -0.3010218 -0.15767528
-0.11513508 0.37556762 0.0847221 0.040258672 -0.55363125 0.38181102 -0.39430928 -0.28379714

sequential/dense_6/MatMul f4 [5, 8]
00000000: 6e2d 393f 3f68 c6be a2cd ab3e 70f8 48bf
00000010: 04e8 3cbf 6415 12be 1f13 32bf 13d0 34bf
00000020: 6815 a5be 689a de3e c1e7 ccbf d344 883c
00000030: 5570 023f f000 d63e d812 c53e 7b50 64be
00000040: baff 6fbe 7647 2d3f e478 25bf 3744 cf3d
00000050: b78d c83d eb48 aa3e 8528 d1be 0d9c 3a3e
00000060: 858f 01bf b0e9 86be b8cc 0f3f a3c0 b9be
00000070: dc6b cebf 452a 093f 5e1e ecbd e841 293f
00000080: 9cf9 f0be e717 82bd 0b1f 243f 6e73 333d
00000090: feb0 223e 8600 cf3e 3ed0 d7be dee6 ecbf
0.72334945 -0.38751408 0.33555323 -0.78504086 -0.7379153 -0.14265972 -0.69560426 -0.70629996
-0.32242894 0.43477178 -1.6008226 0.01663438 0.50952655 0.4179759 0.3849094 -0.22296326
-0.23437396 0.67687166 -0.6463759 0.10120433 0.09792655 0.33258757 -0.40851226 0.18223591
-0.5060962 -0.26350164 0.5617175 -0.36279783 -1.6126666 0.53580123 -0.115292296 0.6611619
-0.47065437 -0.06352215 0.6410987 0.043811254 0.1588783 0.40430087 -0.42151064 -1.8507955
