app/src/main/ml/Model_Day_Condition.tflite (tflite, 189676 bytes, 14 tensors)

sequential/dense_1/BiasAdd/ReadVariableOp f4 [128]
0.08498096 -0.0388662 -0.1180338 -0.00689427 -0.05192446 -0.15632847 -0.06051355 -0.03086097
-0.08068404 -0.036414336 -0.07817592 -0.04015318 -0.18508121 0.024182845 -0.03812943 -0.025553858
-0.019430816 -0.15412204 -0.099139206 -0.049753282 -0.066200055 -0.20820734 -0.083329394 0.050006934
-0.07198539 0.049310774 -0.061349396 -0.1409446 -0.061871044 -0.15707962 0.20395216 -0.13506593
-0.13187274 -0.070339076 -0.049402025 -0.049899243 -0.12300912 0.02443658 0.022640627 -0.022679213
-0.07396468 -0.13469552 -0.056032628 0.037238516 -0.11566226 0.23641619 -0.08798664 0.058117144
-0.04973982 -0.10829199 -0.07540809 -0.10081267 -0.058762316 0.015323366 -0.15833196 -0.06682639
0.02770249 -0.0935889 -0.059130315 -0.07695057 -0.043150757 0.108892426 -0.11143413 -0.008760702
-0.1697657 -0.05557611 -0.081567846 -0.04614738 -0.11494194 -0.02414838 -0.06652273 -0.07607027
-0.07322581 0.015211404 0.009555275 -0.059184108 0.134367 -0.08880702 -0.1338005 -0.035700936
-0.16365819 -0.099343345 -0.07074554 0.11997195 -0.06684358 -0.04916127 -0.021577938 -0.057720553
0.018341746 -0.016999116 -0.11969551 -0.0063285823 -0.09463172 0.1067372 -0.056195598 -0.0976233
-0.13575505 -0.02506991 -0.08546913 0.11235266 0.13473634 -0.0897682 -0.07728414 -0.0992227
-0.05191161 -0.10197589 -0.03171451 -0.07986521 -0.0107976645 -0.05291052 -0.0527452 0.30832073
-0.05703526 -0.034787834 -0.1694126 0.049804535 -0.021259107 0.072642826 -0.04875691 -0.08353703
0.07107694 -0.15501122 -0.04208625 -0.095599756 -0.0628545 -0.0022052734 -0.059898853 -0.024998685
00000000: 7f0a ae3d 2a32 1fbd b4bb f1bd 54e9 e1bb
00000010: beae 54bd 9214 20be 0edd 77bd 25d0 fcbc
00000020: ad3d a5bd 3327 15bd b21a a0bd a977 24bd
00000030: ee85 3dbe 1a1b c63c 9b2d 1cbd 5356 d1bc
00000040: 602d 9fbc 2bd2 1dbe 7f09 cbbd 19ca 4bbd
00000050: e593 87bd 4e34 55be 9aa8 aabd 12d4 4c3d
00000060: 136d 93bd 18fa 493d 8149 7bbd c853 10be
00000070: 7e6c 7dbd 7bd9 20be d6d8 503e b94e 0abe
00000080: a609 07be ef0d 90bd c759 4abd 2663 4cbd
00000090: 35ec fbbd 392f c83c d678 b93c c2c9 b9bc
000000a0: cb7a 97bd 9fed 09be 7882 65bd 6a87 183d
000000b0: 56e0 ecbd 1617 723e 5732 b4bd 3e0c 6e3d
000000c0: fbbb 4bbd 31c8 ddbd 8f6f 9abd e076 cebd
000000d0: c1b0 70bd db0e 7b3c c621 22be 46dc 88bd
000000e0: 55f0 e23c 8aab bfbd a132 72bd 4398 9dbd
000000f0: d9be 30bd fe02 df3d 9437 e4bd 0c89 0fbc
00000100: 0fd7 2dbe c6a3 63bd 0b0d a7bd 0905 3dbd
00000110: ae66 ebbd d3d2 c5bc 123d 88bd bbca 9bbd
00000120: 6af7 95bd 4139 793c ba8d 1c3c 096b 72bd
00000130: 8197 093e 74e0 b5bd 0003 09be 253b 12bd
00000140: 0396 27be 8674 cbbd 0ae3 90bd dbb3 f53d
00000150: 49e5 88bd 545d 49bd 37c4 b0bc 636c 6cbd
00000160: 6e41 963c bb41 8bbc eb22 f5bd ff5f cfbb
00000170: 46ce c1bd 0899 da3d 5b2d 66bd baee c7bd
00000180: 5f03 0bbe 695f cdbc 700a afbd 2719 e63d
00000190: 53f8 093e 64d8 b7bd 2647 9ebd 4535 cbbd
000001a0: 45a1 54bd bcd8 d0bd 13e7 01bd 5f90 a3bd
000001b0: b0e8 30bc b4b8 58bd 5a0b 58bd 37dc 9d3e
000001c0: ce9d 69bd b07d 0ebd 7f7a 2dbe d7ff 4b3d
000001d0: 9427 aebc c3c5 943d 53b5 47bd 7615 abbd
000001e0: c990 913d 43bb 1ebe a262 2cbd cec9 c3bd
000001f0: dcb9 80bd 5986 10bb 8058 75bd 0bca ccbc

sequential/dense_2/BiasAdd/ReadVariableOp f4 [64]
0.022153584 -0.06563094 -0.068521075 -0.07889198 -0.05162366 -0.1902935 -0.022260442 -0.14020476
-0.11258135 -0.13553582 -0.18706262 -0.0054960316 -0.14291236 -0.17222503 -0.1825068 -0.0753243
-0.0750534 -0.020010864 -0.20910199 0.050554994 -0.09761886 0.14265265 -0.014615172 -0.11496448
-0.23174815 0.14517677 0.1077828 -0.23484272 -0.016758788 0.1117153 -0.15800802 0.043404512
0.07303813 0.00025088392 0.01850848 -0.103185914 -0.07853271 -0.19353428 0.099679835 -0.23247111
0.018728806 0.11047048 -0.13327746 0.013866217 0.17009655 0.0075207395 -0.22195604 -0.07591675
-0.0403673 -0.20975952 -0.20773667 -0.1642121 -0.15509507 0.12284686 0.010783686 -0.23747063
-0.16499463 -0.081774384 -0.08317314 -0.11944464 -0.062281232 -0.055075686 0.027896652 -0.04277106
00000000: 6f7b b53c 8469 86bd c754 8cbd 1e92 a1bd
00000010: 5573 53bd 4ddc 42be 885b b6bc d691 0fbe
00000020: 0d91 e6bd e7c9 0abe 588d 3fbe 0e18 b4bb
00000030: 9e57 12be c25b 30be 10e3 3abe a043 9abd
00000040: 99b5 99bd d3ed a3bc d51e 56be c112 4f3d
00000050: 66ec c7bd 8913 123e 7974 6fbc 7f72 ebbd
00000060: 634f 6dbe 38a9 143e 3bbd dc3d 9c7a 70be
00000070: ba49 89bc feca e43d dbcc 21be eec8 313d
00000080: 0495 953d 1289 8339 199f 973c 2353 d3bd
00000090: c2d5 a0bd da2d 46be f124 cc3d e80c 6ebe
000000a0: 276d 993c 593e e23d e379 08be 212f 633c
000000b0: ca2d 2e3e 8970 f63b 7248 63be 3e7a 9bbd
000000c0: 2f58 25bd 33cb 56be ecb8 54be 3727 28be
000000d0: 3ed1 1ebe 2297 fb3d 0fae 303c 802b 73be
000000e0: 5af4 28be 5479 a7bd ae56 aabd 649f f4bd
000000f0: 9b1a 7fbd 0b97 61bd 8587 e43c b530 2fbd

sequential/dense_3/BiasAdd/ReadVariableOp f4 [32]
-0.118196994 -0.07891097 -0.09205691 -0.1412976 0.15250354 -0.096467584 0.031584226 -0.08603682
-0.068983614 -0.1488213 -0.13587342 -0.20397614 0.057544913 -0.17481743 -0.23087783 -0.23140028
-0.084843926 -0.00018630137 0.12759675 0.14821987 -0.032852184 -0.1709454 0.038114633 -0.0071356324
-0.08612536 -0.045952898 -0.13689323 0.003428128 -0.014870961 -0.027274543 0.090122126 -0.014451566
00000000: 4411 f2bd 139c a1bd 5588 bcbd 51b0 10be
00000010: e329 1c3e cc90 c5bd 765e 013d 1334 b0bd
00000020: 4847 8dbd 9c64 18be 6722 0bbe 1fdf 50be
00000030: 37b4 6b3d 5703 33be 3d6b 6cbe 32f4 6cbe
00000040: a7c2 adbd e559 43b9 b9a8 023e f3c6 173e
00000050: 0390 06bd 500c 2fbe 171e 1c3d 06d2 e9bb
00000060: 7e62 b0bd 1b39 3cbd bd2d 0cbe 72aa 603b
00000070: 55a5 73bc dd6e dfbc f391 b83d 43c6 6cbc

sequential/dense_4/BiasAdd/ReadVariableOp f4 [16]
-0.018487614 -0.14641334 -0.097593665 0.011572792 0.07419383 0.18221372 0.119295634 -0.18779732
-0.11354633 0.026168482 -0.16504914 0.070264965 -0.074179925 -0.32950777 0.124665156 0.036124505
00000000: 5673 97bc 61ed 15be 30df c7bd cf9b 3d3c
00000010: eff2 973d 3c96 3a3e 4551 f43d f14d 40be
00000020: fa8a e8bd 495f d63c a402 29be 14e7 8f3d
00000030: a5eb 97bd 3eb5 a8be 7250 ff3d 4af7 133d

sequential/dense_5/BiasAdd/ReadVariableOp f4 [8]
0.012902841 0.06537369 0.15120374 -0.1187432 -0.053984635 0.086722836 0.049344517 0.2793226
00000000: 7066 533c a4e2 853d 27d5 1a3e a32f f3bd
00000010: fe1e 5dbd be9b b13d 7a1d 4a3d 5f03 8f3e

sequential/dense_6/BiasAdd/ReadVariableOp f4 [4]
-0.0741947 0.5842582 -0.42277142 -0.44052312
00000000: 64f3 97bd f291 153f 7f75 d8be 3f8c e1be

sequential/dense/BiasAdd/ReadVariableOp f4 [256]
0.019791622 -0.11789317 -0.06319092 -0.009495224 -0.0009907791 -0.011424401 0.010349287 -0.109096035
0.0 0.1523448 -0.03974767 -0.05108768 -0.030664945 -0.059587087 0.03599708 -0.021407763
-0.04458644 0.0 0.0 -0.0047596907 -0.07234281 -0.04044962 -0.031111522 0.0
0.014500773 -0.04770599 0.0 -0.058499932 -0.035494894 -0.06134342 0.0 -0.025088781
-0.04962368 -0.031544328 -0.07882612 -0.013471793 -0.082258746 -0.0059134876 -0.003996002 0.0064424523
0.0014373694 -0.043585014 0.0 -0.023293925 -0.04343823 -0.025937913 -0.03053089 -0.018542113
-0.068267435 -0.06593231 -0.022314277 0.0 -0.09097842 -0.0037424944 -0.07535436 -0.088129915
-0.044184856 -0.040461484 -0.07674375 -0.06637219 0.0 -0.1112193 -0.018177433 -0.019422285
-0.022757836 -0.027164666 0.0 -0.021546662 -0.050618004 -0.076824926 -0.088942066 -0.07458001
-0.014727476 -0.071379125 -0.00512158 -0.014985731 -0.085919484 -0.018138176 -0.017493183 -0.047338236
-0.05137632 -0.013810246 -0.006742261 -0.03469882 -0.08283703 -0.05843438 -0.0004915306 -0.09964793
0.0 -0.11420381 0.008415946 0.0 -0.031789932 -0.106680304 0.11756103 -0.023915462
-0.0035176403 -0.061667867 -0.09671519 -0.08637773 -0.05921215 0.0701378 -0.10787172 -0.0557001
-0.01579689 -0.061488792 -0.010252244 -0.027293405 -0.099396974 -0.02099872 0.040388193 -0.073867045
-0.025000352 0.0 -0.06313867 -0.044303723 -0.04045102 -0.0046214783 -0.11721682 0.028980717
0.093547575 -0.09247631 0.022488799 -0.0047146725 0.06344684 -0.016190292 -0.08409347 0.0
-0.048380274 -0.1036975 -0.042942412 -0.00996702 0.011856873 -0.00584859 -0.039823923 -0.06749763
-0.01919171 0.024003053 -0.062419962 -0.06043006 -0.06453588 -0.072299846 -0.019550031 0.010463129
0.013780231 -0.10788994 0.0034639204 -0.0037613448 -0.04734722 -0.01603324 -0.108100004 0.003930446
-0.06875495 -0.024398014 0.0038339053 -0.07280659 -0.03288926 -0.038436912 -0.037308615 -0.01560761
0.0 -0.117029935 -0.034410525 -0.034373216 -0.043921866 -0.03637013 0.0 -0.095256984
-0.049251985 -0.014729374 -0.09382082 -0.08265015 -0.019499267 -0.030144177 -0.057356007 -0.0074051493
-0.03692752 -0.12072266 0.012657316 0.04726411 0.0 -0.021298682 -0.015776968 -0.08757793
-0.11067697 -0.00746433 -0.09132231 -0.10547992 0.050491143 -0.025214473 -0.1436135 -0.052143414
-0.06107822 -0.018763721 0.0 -0.100891545 -0.018680505 0.024502445 0.0 -0.040679473
0.004130329 -0.041068092 0.010165464 -0.08908633 -0.03332169 -0.013445992 -0.09239405 -0.010529112
0.010926705 0.001946306 0.017035428 -0.0055650873 -0.030714456 -0.0074215527 -0.010004674 -0.095069125
-0.13259944 -0.034295313 -0.032075904 0.032467112 0.0029819356 -0.054066166 -0.03868309 -0.0020022455
-0.0004261749 0.078022495 -0.0017492011 -0.08893131 -0.0012395675 -0.054199826 -0.012693418 -0.006897236
0.0076550115 -0.049685474 -0.00803275 -0.05072742 0.014591971 -0.041451976 -0.061135944 0.010087853
-0.018485928 -0.15891102 -0.021050524 0.0010481705 0.022957474 0.0 0.0 -0.065271206
-0.07692039 -0.008213141 0.0 -0.086192414 0.0 0.0 -0.0038300261 -0.012343
00000000: 0a22 a23c f971 f1bd 3e6a 81bd db91 1bbc
00000010: 08dd 81ba 692d 3bbc 0e90 293c be6d dfbd
00000020: 0000 0000 4600 1c3e 74ce 22bd 5141 51bd
00000030: 0d35 fbbc 9711 74bd ad71 133d 555f afbc
00000040: 45a0 36bd 0000 0000 0000 0000 2ef7 9bbb
00000050: 7828 94bd 80ae 25bd 97dd febc 0000 0000
00000060: a694 6d3c 5b67 43bd 0000 0000 a09d 6fbd
00000070: 1863 11bd 3d43 7bbd 0000 0000 fd86 cdbc
00000080: 3342 4bbd a034 01bd 976f a1bd ccb8 5cbc
00000090: 4677 a8bd eec5 c1bb e5f0 82bb 351b d33b
000000a0: 1d66 bc3a 3386 32bd 0000 0000 e7d2 bebc
000000b0: 49ec 31bd bf7b d4bc eb1b fabc a1e5 97bc
000000c0: cccf 8bbd 8507 87bd 6ecc b6bc 0000 0000
000000d0: e552 babd a344 75bb 6353 9abd 757d b4bd
000000e0: 2efb 34bd f1ba 25bd d42b 9dbd 25ee 87bd
000000f0: 0000 0000 f2c6 e3bd d7e8 94bc 7c1b 9fbc
00000100: a46e babc 6f88 debc 0000 0000 a082 b0bc
00000110: d354 4fbd 6356 9dbd 4227 b6bd 67bd 98bd
00000120: 834b 71bc 382f 92bd edd2 a7bb b686 75bc
00000130: 8ef6 afbd 8396 94bc dd4d 8fbc bde5 41bd
00000140: fa6f 52bd 5f44 62bc 2fee dcbb 5a20 0ebd
00000150: 76a6 a9bd e358 6fbd 0fda 00ba 3714 ccbd
00000160: 0000 0000 b0e3 e9bd 09e3 093c 0000 0000
00000170: 2936 02bd 347b dabd d6c3 f03d 5cea c3bc
00000180: 3688 66bb 7297 7cbd 9d12 c6bd cfe6 b0bd
00000190: 7088 72bd 68a4 8f3d d9eb dcbd ca25 64bd
000001a0: 7b68 81bc acdb 7bbd 07f9 27bc 6b96 dfbc
000001b0: a490 cbbd 8205 acbc 176e 253d 9b47 97bd
000001c0: 8acd ccbc 0000 0000 d94e 81bd d277 35bd
000001d0: f8af 25bd c56f 97bb 5f0f f0bd f868 ed3c
000001e0: df95 bf3d 3864 bdbd 6e3a b83c 8a7d 9abb
000001f0: 6bf0 813d 81a1 84bc 3239 acbd 0000 0000
00000200: 652a 46bd 5b5f d4bd 62e4 2fbd b64c 23bc
00000210: 5443 423c 87a5 bfbb 691e 23bd 333c 8abd
00000220: ef37 9dbc 0da2 c43c 13ac 7fbd 8385 77bd
00000230: 632b 84bd f111 94bd 6327 a0bc 8b6d 2b3c
00000240: 7ac6 613c 67f5 dcbd f102 633b e580 76bb
00000250: 29ef 41bd 2458 83bc 8963 ddbd f9ca 803b
00000260: 65cf 8cbd 58de c7bc 4242 7b3b 9f1b 95bd
00000270: e4b6 06bd 0670 1dbd ebd0 18bd 10b7 7fbc
00000280: 0000 0000 64ad efbd 0df2 0cbd eeca 0cbd
00000290: 6ae7 33bd d8f8 14bd 0000 0000 1816 c3bd
000002a0: 73bc 49bd 7953 71bc 2125 c0bd 7b44 a9bd
000002b0: edbc 9fbc ecf0 f6bc 22ee 6abd e5a6 f2bb
000002c0: 5041 17bd 713d f7bd a260 4f3c 0398 413d
000002d0: 0000 0000 937a aebc b33e 81bc 0f5c b3bd
000002e0: 9baa e2bd 5797 f4bb 3107 bbbd db05 d8bd
000002f0: cdcf 4e3d 958e cebc 6b0f 13be 5594 55bd
00000300: 282d 7abd 60b6 99bc 0000 0000 3aa0 cebd
00000310: dc07 99bc 5ab9 c83c 0000 0000 859f 26bd
00000320: b657 873b 0437 28bd 0c8d 263c e572 b6bd
00000330: 537c 08bd 944c 5cbc 1739 bdbd 4c82 2cbc
00000340: ec05 333c 311b ff3a e28d 8b3c 565b b6bb
00000350: e29c fbbc 7f30 f3bb a5ea 23bc 9ab3 c2bd
00000360: 26c8 07be 3e79 0cbd 0662 03bd 3cfc 043d
00000370: 946c 433b 7c74 5dbd 2972 1ebd 1b38 03bb
00000380: 3a70 dfb9 42ca 9f3d 7345 e5ba 9e21 b6bd
00000390: fc78 a2ba a300 5ebd 0ef8 4fbc 3602 e2bb
000003a0: e4d6 fa3b ff82 4bbd cc9b 03bc 8ec7 4fbd
000003b0: 2a13 6f3c 8cc9 29bd af69 7abd 8647 253c
000003c0: cd6f 97bc 92b9 22be 2672 acbc c462 893a
000003d0: 5011 bc3c 0000 0000 0000 0000 e9ac 85bd
000003e0: 7088 9dbd 6990 06bc 0000 0000 a685 b0bd
000003f0: 0000 0000 0000 0000 2d01 7bbb 4b3a 4abc

sequential/dense/MatMul f4 [256, 9]
0.24043888 0.10624134 0.19167657 -0.27524096 -0.23370716 0.029634716 -0.07017364 -0.008244141
0.24231061 -0.04099939 -0.28020912 0.00053611514 -0.029263109 -0.12501107 0.048314627 0.056300126
-0.06310612 0.025843462 -0.057644922 -0.08685965 -0.20562361 -0.11217785 0.09427009 -0.062778614
-0.082445525 -0.046396792 -0.12870389 -0.15512945 0.0152482 -0.36244586 -0.31991172 0.26129517
-0.06420446 -0.20054112 -0.11117909 0.056031786 -0.12184397 -0.1801399 0.16040578 0.07896722
-0.035209257 -0.015231184 0.55004865 0.010311393 -0.05532188 0.17214116 -0.08036674 0.13816611
0.07610993 -0.008356326 0.05654739 -0.5935594 -0.027991727 -0.15063551 0.059953276 0.337721
-0.34876874 -0.026273094 0.0069593955 -0.05821383 0.3085366 -0.0086288145 -0.5186286 -0.102475114
-0.36154294 0.106807694 -0.10336559 -0.030437343 -0.08852531 -0.12355659 0.051209453 -0.28521305
0.056132823 -0.12400312 -0.11902104 0.07625228 0.002809167 -0.054286197 -0.114482306 -0.05436763
-0.063807406 -0.036642846 0.55529183 -0.09817499 -0.47933793 -0.25105214 -0.021216782 0.103702456
0.12587811 -0.09696365 0.006833175 -0.15994352 -0.10503676 0.06702047 -0.18318334 0.011792086
0.08181386 0.009256296 0.07281361 0.092191115 0.08336709 0.04859142 -0.0031141017 -0.24455866
-0.27199513 -0.18118565 0.032907598 0.11862496 -0.12615673 0.18693124 0.01589242 -0.34103057
-0.17306061 -0.0609149 -0.18292785 0.09644369 -0.08419442 0.05749758 -0.069437996 -0.022205543
-0.09485674 -0.19831601 0.12624322 -0.053928055 -0.29666704 -0.1896605 -0.36178893 0.24889967
0.34517306 0.1532192 -0.053538222 0.0021457518 -0.20458513 -0.09951736 -0.046295125 -0.39831525
-0.3161228 -0.14224604 -0.08481388 0.24168798 -0.24956319 -0.20192352 0.030144826 -0.05362609
-0.0682672 0.014491499 0.1361673 -0.09964505 0.011427374 -0.009156283 -0.13794349 -0.2648508
0.19197093 -0.05472003 -0.108280614 -0.114103034 -0.13022885 -0.098600626 -0.0062788874 -0.13775404
-0.020316988 0.10803552 -0.13672234 0.11157702 -0.1257559 -0.11979214 -0.111918315 -0.09226057
0.07035661 -0.13240775 0.03437352 -0.16347374 0.014622224 -0.114270315 -0.16163614 -0.16780658
-0.16004014 -0.032869484 0.28179032 -0.032320302 -0.10358803 -0.042900268 0.024092438 -0.053994834
-0.123911105 0.029248307 0.1094876 -0.035258465 0.020942433 0.051258873 -0.17127928 -0.026295602
-0.017766487 0.031472936 -0.02710135 -0.21072257 -0.054843437 -0.21457736 0.14026594 -0.07156323
-0.051217467 0.001713953 0.012117528 0.08180854 -0.44246924 -0.1724327 -0.11673794 0.101072386
0.079113185 -0.14734946 -0.074464664 -0.013664678 -0.06337805 -0.14827946 -0.11159824 0.102458194
-0.2135816 -0.19116703 0.19212197 0.066749506 0.10792312 -0.0025600237 0.14869785 -0.4871656
0.1778157 -0.12215722 0.12337957 -0.06965009 -0.19752383 0.024932168 -0.1278323 0.03250273
-0.020420922 -0.101528965 -0.034401394 -0.020912006 -0.09169999 0.004209578 -0.02776713 -0.07198714
-0.07741664 -0.14312798 -0.064272165 0.08558624 0.02695504 0.1380994 -0.16137587 -0.1011853
-0.07889598 -0.034994483 -0.087250896 0.051881604 0.104771905 -0.105247594 0.06702478 0.078652
00000000: 9c35 763e 0f95 d93d dd46 443e 62ec 8cbe
00000010: ee50 6fbe 81c4 f23c 33b7 8fbd 6f12 07bc
00000020: 4620 783e faee 27bd 9277 8fbe 148a 0c3a
00000030: 30b9 efbc e702 00be 8fe5 453d f69a 663d
00000040: c83d 81bd abb5 d33c 151d 6cbd 79e3 b1bd
00000050: ff8e 52be 80bd e5bd ad10 c13d 1392 80bd
00000060: 33d9 a8bd 900a 3ebd f4ca 03be 41da 1ebe
00000070: 96d3 793c 8192 b9be 78cb a3be 7bc8 853e
00000080: a17d 83bd a75a 4dbe ddb1 e3bd 9681 653d
00000090: 5589 f9bd 9876 38be 6a41 243e 91b9 a13d
000000a0: 9537 10bd 378c 79bc fdcf 0c3f 1ef1 283c
000000b0: 3299 62bd c645 303e 5197 a4bd 6b7b 0d3e
000000c0: 86df 9b3d f9e8 08bc 3c9e 673d 82f3 17bf
000000d0: e84e e5bc 3240 1abe 9191 753d c4e9 ac3e
000000e0: d191 b2be ac3a d7bc a40b e43b a071 6ebd
000000f0: 82f8 9d3e df5f 0dbc d8c4 04bf 79de d1bd
00000100: 281c b9be febd da3d 57b1 d3bd bc57 f9bc
00000110: c24c b5bd 3d0b fdbd 01c1 513d 7207 92be
00000120: 88eb 653d 59f5 fdbd 4ec1 f3bd 282a 9c3d
00000130: 001a 383b 345b 5ebd b375 eabd 98b0 5ebd
00000140: 75ad 82bd cf16 16bd 9b27 0e3f f80f c9bd
00000150: c86b f5be e889 80be d1ce adbc f461 d43d
00000160: 31e6 003e e194 c6bd d4e8 df3b 3cc8 23be
00000170: 831d d7bd 0742 893d 6a94 3bbe 9833 413c
00000180: 068e a73d b8a7 173c 4d1f 953d b2ce bc3d
00000190: 5dbc aa3d cc07 473d f515 4cbb 966d 7abe
000001a0: f242 8bbe bb88 39be 1eca 063d a5f1 f23d
000001b0: 3b2f 01be e76a 3f3e d230 823c 8f9b aebe
000001c0: cd36 31be e781 79bd 7051 3bbe 4584 c53d
000001d0: 206e acbd 9582 6b3d 8235 8ebd 66e8 b5bc
000001e0: 4044 c2bd 5a13 4bbe e745 013e aae3 5cbd
000001f0: bee4 97be 5d36 42be 663c b9be 8edf 7e3e
00000200: 86ba b03e 7ee5 1c3e e54a 5bbd be9f 0c3b
00000210: c47e 51be c2cf cbbd f59f 3dbd faef cbbe
00000220: d9da a1be f2a8 11be e6b2 adbd 0e7d 773e
00000230: 7e8d 7fbe 0ac5 4ebe 48f2 f63c 08a7 5bbd
00000240: accf 8bbd c16d 6d3c 716f 0b3e b412 ccbd
00000250: e139 3b3c 3c04 16bc 0f41 0dbe 869a 87be
00000260: 0794 443e 1c22 60bd 3ac2 ddbd daae e9bd
00000270: b65a 05be 20ef c9bd 20bf cdbb 650f 0dbe
00000280: d06f a6bc ba41 dd3d f100 0cbe 7e82 e43d
00000290: 28c6 00be 9555 f5bd 6e35 e5bd 1cf3 bcbd
000002a0: 2017 903d e695 07be 40cb 0c3d a965 27be
000002b0: 0d92 6f3c 8e06 eabd f283 25be 7dd5 2bbe
000002c0: 90e1 23be 27a2 06bd d246 903e 4b62 04bd
000002d0: f625 d4bd 31b8 2fbd 815d c53c b029 5dbd
000002e0: 1bc5 fdbd 259a ef3c 093b e03d 2e6b 10bd
000002f0: 778f ab3c d3f4 513d d663 2fbe e069 d7bc
00000300: 068b 91bc c4e9 003d a603 debc a8c7 57be
00000310: 83a3 60bd 2bba 5bbe e0a1 0f3e be8f 92bd
00000320: 68c9 51bd b8a6 e03a 9988 463c 3c8b a73d
00000330: 548b e2be 3392 30be 4d14 efbd 0aff ce3d
00000340: 1806 a23d c7e2 16be ee80 98bd d0e1 5fbc
00000350: 5acc 81bd 92d6 17be 9e8d e4bd 9ad5 d13d
00000360: 23b5 5abe 4ac1 43be 9fbb 443e f7b3 883d
00000370: cc06 dd3d 12c6 27bb 4044 183e c56d f9be
00000380: 5215 363e 912d fabd 6eae fc3d b5a4 8ebd
00000390: b043 4abe 8c3e cc3c 78e6 02be 9521 053d
000003a0: c749 a7bc 6bee cfbd 7ae8 0cbd a84f abbc
000003b0: 34cd bbbd 80f0 893b e477 e3bc fe6d 93bd
000003c0: 9e8c 9ebd 2490 12be 20a1 83bd d747 af3d
000003d0: d1d0 dc3c ee69 0d3e b73f 25be 3d3a cfbd
000003e0: 3794 a1bd 6056 0fbd 99b0 b2bd ce81 543d
000003f0: a792 d63d 0d8c d7bd 4a44 893d 4d14 a13d

sequential/dense_1/MatMul f4 [128, 256]
0.04914647 0.08966741 0.012590464 -0.41501728 0.09067152 -0.011357996 -0.24349946 -0.056026872
-0.06436515 -0.3767473 -0.04519827 -0.019027127 -0.12647386 0.14405625 0.064232394 -0.5692414
0.18819916 -0.08996984 0.08476451 0.06309181 0.09866788 0.03969067 -0.0260445 0.022266626
0.16540575 0.041188415 0.04676619 0.13972063 -0.12082811 -0.11195572 0.10287097 0.09779229
-0.013052214 0.09744445 0.006565307 0.07853503 0.0809489 0.020709738 0.015643733 0.055907745
0.074427105 0.07111317 -0.011339366 0.025509806 -0.029389868 0.018902436 0.02703934 -0.04330955
-0.078617744 0.06651045 0.13928412 0.0011922419 -0.050562922 -0.06898126 -0.13423225 -0.16534431
0.02031641 -0.13600554 -0.11744818 -0.060536563 -0.05589181 0.006608098 -0.012179326 -0.054228783
-0.014848256 0.14772749 0.11170378 -0.1885066 -0.07929575 -0.08071012 0.09506965 0.11107249
-0.11596459 -0.13539197 0.1259095 0.10083586 -0.040227037 -0.016383026 -0.10861859 -0.01653213
-0.12431501 -0.056285925 -0.2448504 -0.07948142 -0.05475032 0.004168495 0.08056036 -0.018878955
0.12143934 -0.08210372 0.19342613 0.034127653 -0.3519363 0.0475148 -0.44403931 -0.107470185
-0.033321172 -0.031627912 -0.11007292 0.18191504 0.053752527 -0.17708418 -0.071521126 0.04601739
-0.09379093 0.27369645 -0.07324698 0.04609759 0.061398413 -0.12532322 -0.08870195 0.0658762
0.06485941 0.024213403 -0.087974295 -0.063220546 0.21741632 -0.0845439 0.10725456 -0.21549228
-0.16471215 0.13560574 0.06083342 0.22757731 -0.06588482 0.026909456 -0.09831327 0.053518057
-0.08436024 0.11435306 -0.08377832 0.04636826 0.009158449 0.16378427 -0.10202425 -0.11686514
-0.06907747 -0.19515467 0.095339246 -0.15510044 0.012271189 -0.099390276 0.01765071 -0.07213683
-0.03783367 -0.027265336 -0.34700313 0.043126993 0.05758459 0.010101723 -0.059219927 0.003954338
0.018426454 -0.1809251 0.10754699 0.038489465 -0.06749751 -0.042874705 0.047697775 0.02298246
0.098234 0.03629586 -0.12831748 0.0036423241 0.19119994 0.025053542 0.024291813 -0.10363442
0.21702383 0.1634664 0.20743857 0.10715046 -0.44875553 0.15145308 0.16454965 -0.109173164
-0.09480889 -0.12521864 0.0813613 -0.015213681 -0.048454046 -0.017736506 -0.11149917 0.100516155
0.12519062 -0.23967917 -0.010890694 0.19007428 0.0915159 0.07737262 -0.07719061 0.017806329
0.011932969 -0.071354665 -0.11864796 -0.0932531 -0.00045019435 0.076333895 -0.10246304 0.049143318
-0.097845 0.10952241 0.21685402 0.1645525 -0.10551279 0.04786082 0.045048352 -0.09430599
0.2541279 -0.40574297 -0.13216865 0.09108919 0.134536 -0.066920124 0.15855141 0.03474861
0.08327497 -0.06172928 0.012987827 -0.046105444 0.17673644 0.14547487 -0.043685205 -0.107107885
-0.27311277 -0.31489608 0.07517094 -0.10894066 -0.05438145 -0.12736768 0.10058532 -0.07581984
0.028189648 -0.084408306 -0.25654334 0.0003554572 -0.1456933 0.13250619 -0.031243093 0.09377744
-0.24400713 -0.0983856 0.20913363 -0.01537856 -0.10190428 0.12029633 -0.100387365 0.018816596
-0.17221743 -0.095178805 0.12445581 0.008194009 -0.09428549 -0.09268305 -0.5592504 -0.033698775
00000000: cf4d 493d 8ca3 b73d 3c48 4e3c 257d d4be
00000010: fdb1 b93d e316 3abc ec57 79be 6f7c 65bd
00000020: e0d1 83bd 06e5 c0be d221 39bd c7de 9bbc
00000030: 5d82 01be 7b83 133e 468c 833d ceb9 11bf
00000040: 48b7 403e 1c42 b8bd 0499 ad3d 4736 813d
00000050: 6312 ca3d af92 223d 465b d5bc 8068 b63c
00000060: 2060 293e 2fb5 283d e88d 3f3d ed12 0f3e
00000070: ba74 f7bd 0a49 e5bd 04ae d23d 5347 c83d
00000080: f4d8 55bc f590 c73d c921 d73b f9d6 a03d
00000090: 89c8 a53d 78a7 a93c 4927 803c 85ff 643d
000000a0: 3d6d 983d c8a3 913d c0c8 39bc f1f9 d03c
000000b0: 05c3 f0bc 48d9 9a3c 9b81 dd3c 5b65 31bd
000000c0: 5702 a1bd a136 883d 7fa0 0e3e 0045 9c3a
000000d0: 111b 4fbd 0c46 8dbd 2e74 09be 0550 29be
000000e0: 9a6e a63c 0945 0bbe ac88 f0bd 30f5 77bd
000000f0: d0ee 64bd be88 d83b cc8b 47bc 001f 5ebd
00000100: 1946 73bc e045 173e f4c4 e43d e007 41be
00000110: cf65 a2bd 594b a5bd e0b3 c23d f979 e33d
00000120: d87e edbd 31a4 0abe 6cee 003e 0883 ce3d
00000130: 1bc5 24bd b235 86bc 6c73 debd 646e 87bc
00000140: de98 febd 128c 66bd 10ba 7abe 28c7 a2bd
00000150: df41 60bd df97 883b d4fc a43d 0aa8 9abc
00000160: 30b5 f83d ff25 a8bd 8011 463e 70c9 0b3d
00000170: ff30 b4be e19e 423d 1f59 e3be 5419 dcbd
00000180: c87b 08bd 458c 01bd e96d e1bd f047 3a3e
00000190: 9c2b 5c3d 8e55 35be ab79 92bd bb7c 3c3d
000001a0: 7615 c0bd f121 8c3e 8302 96bd d4d0 3c3d
000001b0: e77c 7b3d bb54 00be 5ea9 b5bd 1aea 863d
000001c0: 03d5 843d 305b c63c de2b b4bd c679 81bd
000001d0: 62a2 5e3e 5a25 adbd 47a8 db3d 02aa 5cbe
000001e0: 4daa 28be 3bdc 0a3e 772c 793d 070a 693e
000001f0: 9fee 86bd 3871 dc3c 7858 c9bd c035 5b3d
00000200: 10c5 acbd f031 ea3d f893 abbd a5ec 3d3d
00000210: 520d 163c 10b7 273e 17f2 d0bd fe56 efbd
00000220: 7d78 8dbd a0d6 47be 3941 c33d a6d2 1ebe
00000230: 190d 493c 218d cbbd 3998 903c 79bc 93bd
00000240: 7af7 1abd 8e5b dfbc 65aa b1be eea5 303d
00000250: d2dd 6b3d b281 253c 9890 72bd 6493 813b
00000260: 13f3 963c 6e44 39be 9941 dc3d 21a7 1d3d
00000270: 223c 8abd 639d 2fbd be5e 433d b645 bc3c
00000280: e82e c93d f8aa 143d a865 03be 0fb4 6e3b
00000290: ebc9 433e 163d cd3c a0ff c63c 483e d4bd
000002a0: 7f3b 5e3e bc63 273e c76a 543e b371 db3d
000002b0: 49c3 e5be 8416 1b3e b47f 283e 2e96 dfbd
000002c0: 2a2b c2bd 5139 00be c1a0 a63d ce42 79bc
000002d0: c077 46bd 264c 91bc ad59 e4bd 6adb cd3d
000002e0: f831 003e 756e 75be e26e 32bc d5a2 423e
000002f0: b06c bb3d 8975 9e3d 1c16 9ebd 94de 913c
00000300: 8082 433c 6522 92bd b4fd f2bd 7bfb bebd
00000310: 1008 ecb9 f254 9c3d 24d8 d1bd 814a 493d
00000320: f662 c8bd 494d e03d fb0e 5e3e 7380 283e
00000330: 1717 d8bd b509 443d 9f84 383d 8023 c1bd
00000340: 0d1d 823e 8bbd cfbe 3857 07be f88c ba3d
00000350: cec3 093e 6b0d 89bd 4d5b 223e 8f54 0e3d
00000360: 118c aa3d d7d7 7cbd e5ca 543c 10d9 3cbd
00000370: 66fa 343e 5df7 143e 42ef 32bd 615b dbbd
00000380: 70d5 8bbe 0f3a a1be 39f3 993d 481c dfbd
00000390: 15bf 5ebd ac6c 02be adff cd3d 6f47 9bbd
000003a0: faed e63c 43de acbd a659 83be a85c ba39
000003b0: a030 15be b4af 073e 84f1 ffbc 630e c03d
000003c0: 01dd 79be 647e c9bd 2027 563e 5bf6 7bbc
000003d0: 31b3 d0bd ec5d f63d e497 cdbd 4325 9a3c
000003e0: c459 30be 1bed c2bd b0e2 fe3d 2a40 063c
000003f0: c018 c1bd 9cd0 bdbd 092b 0fbf ba07 0abd

sequential/dense_2/MatMul f4 [64, 128]
0.10763706 0.102567814 0.2161232 -0.08203435 -0.097299635 0.055008896 0.06317244 -0.13806534
-0.16747227 0.016051134 0.1207401 0.40658942 -0.07585432 0.042896513 -0.08928423 0.10960663
-0.055377267 0.024021357 0.009618927 -0.058245108 0.04694026 -0.26894704 -0.10423308 -0.1581081
-0.13312985 0.036721982 -0.006608871 -0.05898887 -0.26605392 0.37215528 0.30038062 0.052635826
-0.05037106 0.27865097 0.20942718 -0.027147193 -0.17025366 0.010585791 0.21436027 0.18417157
-0.23012212 0.07028003 -0.06903689 -0.23684347 0.020706354 -0.34077737 -0.14873765 -0.08864118
-0.07455656 -0.19174507 0.03323152 -0.014479028 -0.08009218 -0.21880895 -0.24747747 -0.13693836
-0.05899368 0.16386066 0.08242484 0.13020068 0.123432554 0.0017412921 0.006193399 0.10562435
0.020355929 -0.015469837 0.122128665 -0.01894646 0.12181417 0.042726208 0.004200714 0.021532178
-0.0013468065 -0.073541835 -0.23199382 -0.14832222 0.17026384 -0.0636023 -0.11599757 0.0149188
0.00095166283 -0.12146923 0.21150096 0.063944556 0.024125936 0.105883814 -0.113188826 0.16207774
0.025840228 0.03877546 -0.033499334 -0.0559683 0.031495716 0.17966074 0.11232736 0.06871538
0.13972534 0.04140746 -0.085986234 0.10466012 0.035405084 0.030539684 -0.15634161 -0.1105931
0.026601339 0.087253295 -0.010642544 0.09051518 0.17753747 0.05418293 -0.049808703 -0.16633758
0.11474525 -0.1500006 -0.04936411 0.01497836 -0.08904147 -0.02588834 0.18083562 0.12714121
0.1075352 -0.048011232 0.0397351 0.060272492 0.03558169 0.25103778 0.048399836 -0.03637902
-0.20162722 0.07586471 0.06832395 -0.09768507 -0.14078029 -0.175006 0.14114502 -0.13808064
0.098541655 0.15838411 0.014072024 0.3162256 -0.18814903 -0.098577626 0.16035302 0.04257614
-0.06278464 0.018263927 0.097058155 -0.09498487 0.14977314 0.26075932 0.10961925 -0.16780306
-0.027360726 -0.12780742 0.16526969 0.022223815 0.04522047 0.17075029 0.04926768 0.18155253
-0.05936536 -0.11353467 -0.0420644 -0.11642714 0.3364241 0.008750171 -0.073808335 0.10930061
-0.062327415 -0.29486105 0.08628056 0.023095343 -0.0124639515 0.018988669 0.12940805 -0.2137931
-0.047592696 -0.029778734 -0.050312504 0.07670783 0.14949088 0.1763265 -0.087892264 0.10425132
-0.12482283 0.076515965 -0.15638185 -0.22501786 -0.1968341 -0.31018737 0.1640357 -0.18317144
0.18187134 0.07610786 0.08169402 0.14680406 0.25826925 0.020202484 -0.15772225 0.07955573
-0.1079249 -0.2728641 0.19575429 0.090626016 -0.16497521 0.15098941 -0.05666397 -0.01784897
-0.043058973 0.16938695 -0.17885265 0.06807999 0.1739373 0.059423752 0.080036804 0.16627088
-0.016342072 0.15067294 0.14103888 -0.043695536 -0.19863927 -0.17242256 -0.17673796 -0.04715311
-0.40649164 0.1458766 -0.18529499 0.1473891 0.17291614 -0.019502074 0.09347832 -0.3424147
-0.05227511 -0.09667831 0.07335826 -0.016223297 0.026117472 0.16862398 0.0322467 0.1657998
-0.34507614 0.10614675 0.10214955 -0.29606247 -0.0985918 0.025076943 -0.15209724 0.07633915
0.1282836 0.058309704 -0.104292504 0.050577484 -0.1764061 0.21992439 0.009272759 0.12519288
00000000: d270 dc3d 130f d23d 664f 5d3e a001 a8bd
00000010: 0845 c7bd 0251 613d 8d60 813d 0061 0dbe
00000020: da7d 2bbe ab7d 833c 9646 f73d 7d2c d03e
00000030: 8259 9bbd 41b4 2f3d a6da b6bd 7179 e03d
00000040: 46d3 62bd 70c8 c43c b498 1d3c 6c92 6ebd
00000050: 6e44 403d 6db3 89be 2778 d5bd 17e7 21be
00000060: 3153 08be ca69 163d 3a8f d8bb 509e 71bd
00000070: 3838 88be 238b be3e 7dcb 993e aa98 573d
00000080: e251 4ebd 57ab 8e3e 1474 563e ca63 debc
00000090: fa56 2ebe 0770 2d3c 4281 5b3e 7997 3c3e
000000a0: 22a5 6bbe faee 8f3d 3763 8dbd 1887 72be
000000b0: 5fa0 a93c 5f7a aebe af4e 18be 8289 b5bd
000000c0: 1cb1 98bd d258 44be c61d 083d 7239 6dbc
000000d0: 5e07 a4bd 740f 60be bc6a 7dbe 9239 0cbe
000000e0: 5ba3 71bd 17cb 273e 5bce a83d 5453 053e
000000f0: 35ca fc3d 113c e43a fff1 ca3b 9451 d83d
00000100: 7ac1 a63c 3375 7dbc 981e fa3d 9b35 9bbc
00000110: b579 f93d ad01 2f3d 25a6 893b 4064 b03c
00000120: 5487 b0ba 1a9d 96bd ca8f 6dbe c8e1 17be
00000130: a559 2e3e ec41 82bd 2290 edbd fc6d 743c
00000140: 0379 793a dcc4 f8bd b593 583e 5df5 823d
00000150: c1a3 c53c 9dd9 d83d 8bcf e7bd b5f7 253e
00000160: e3ae d33c 04d3 1e3d 9936 09bd 043f 65bd
00000170: a701 013d fcf8 373e e30b e63d a6ba 8c3d
00000180: 2914 0f3e de9a 293d 8d19 b0bd 0c58 d63d
00000190: ec04 113d 5c2e fa3c 0418 20be a37e e2bd
000001a0: 0deb d93c dbb1 b23d 115e 2ebc 0660 b93d
000001b0: 62cc 353e ecee 5d3d 3604 4cbd 6654 2abe
000001c0: 8fff ea3d c299 19be 0532 4abd cc67 753c
000001d0: 605b b6bd c913 d4bc f92c 393e 4e31 023e
000001e0: 6a3b dc3d 6da7 44bd 46c1 223d 4ae0 763d
000001f0: 1bbe 113d 0688 803e e83e 463d 2b02 15bd
00000200: 5e77 4ebe f55e 9b3d 6ded 8b3d 1c0f c8bd
00000210: b528 10be c634 33be 5288 103e 0365 0dbe
00000220: 35d0 c93d 722f 223e 598e 663c 52e8 a13e
00000230: 24aa 40be 11e3 c9bd 9533 243e 5264 2e3d
00000240: 3c95 80bd 3b9e 953c 6dc6 c63d 6d87 c2bd
00000250: 215e 193e 3f82 853e 0f80 e03d 91d4 2bbe
00000260: 9a23 e0bc f3df 02be 753c 293e b80e b63c
00000270: 1939 393d 2ad9 2e3e e8cc 493d e8e8 393e
00000280: 1729 73bd dd84 e8bd b84b 2cbd 5a71 eebd
00000290: c83f ac3e e15c 0f3c d328 97bd 00d9 df3d
000002a0: 084b 7fbd 07f8 96be ddb3 b03d 7232 bd3c
000002b0: 9a35 4cbc 208e 9b3c 8b83 043e 94ec 5abe
000002c0: 8ff0 42bd 88f2 f3bc 7c14 4ebd ff18 9d3d
000002d0: 2314 193e ef8e 343e dc00 b4bd b781 d53d
000002e0: 1da3 ffbd 67b4 9c3d 9022 20be 156b 66be
000002f0: e18e 49be e1d0 9ebe f9f8 273e 4b91 3bbe
00000300: 7b3c 3a3e 70de 9b3d 324f a73d ce53 163e
00000310: de3b 843e ae7f a53c f181 21be 1dee a23d
00000320: bb07 ddbd d8b4 8bbe d073 483e 229a b93d
00000330: 43ef 28be f89c 1a3e 7b18 68bd 0138 92bc
00000340: 9b5e 30bd c673 2d3e 2625 37be 866d 8b3d
00000350: 9f1c 323e 5266 733d 56ea a33d ea42 2a3e
00000360: cfdf 85bc 024a 1a3e 7f6c 103e 17fa 32bd
00000370: 1868 4bbe 8a8f 30be ccfa 34be 9f23 41bd
00000380: ac1f d0be ad60 153e f8bd 3dbe 2bed 163e
00000390: ee10 313e d0c2 9fbc 9071 bf3d fb50 afbe
000003a0: 6d1e 56bd 47ff c5bd db3c 963d b8e6 84bc
000003b0: 4ff4 d53c c4ab 2c3e 1e15 043d 6cc7 293e
000003c0: d2ad b0be 7863 d93d c933 d13d 8095 97be
000003d0: 7fea c9bd 296e cd3c 61bf 1bbe b357 9c3d
000003e0: c75c 033e 28d6 6e3d 4f97 d5bd 562a 4f3d
000003f0: cda3 34be dc33 613e c5ec 173c 9032 003e

sequential/dense_3/MatMul f4 [32, 64]
0.034801163 0.25260302 -0.35256606 -0.09929252 -0.12721638 0.17099576 0.07149786 0.13829854
0.21127814 0.19963013 0.043083355 -0.20473324 0.04571783 0.21630542 0.4457956 0.029070979
0.17026517 -0.17315565 -0.009320532 0.0071718856 -0.2678376 0.29164633 -0.063169904 -0.024825634
-0.18117374 0.058121048 0.03873302 0.18894506 0.05268064 0.05249605 0.07195807 -0.41625673
0.07640965 -0.086972535 -0.26377243 0.023928074 -0.07577666 0.19881749 -0.098860994 0.050856594
-0.22482081 -0.14016183 0.02246826 -0.11418893 -0.17726766 0.07694932 0.13165756 -0.12844165
0.2506132 0.12550284 0.23354939 0.12028042 0.13639444 -0.08427478 -0.121965416 0.08546875
0.37657145 -0.06317079 0.27648014 0.013488944 0.002122167 -0.24163908 -0.25669774 -0.33696634
0.08798919 -0.14285015 0.066690326 0.09791188 -0.011704435 -0.15011984 0.035004698 -0.14300212
-0.32523626 -0.18354134 -0.21723878 0.123500526 0.2338227 0.047059387 0.034103785 -0.102505706
-0.064192176 -0.20995961 -0.06903979 0.07899036 0.09377485 -0.13806078 -0.2230581 0.066848725
-0.19011289 -0.1903658 -0.041518137 0.20719986 -0.20415777 -0.0062472946 -0.09484072 -0.05785746
-0.14893767 -0.15898265 0.0068039936 -0.13209614 0.12626165 0.017422408 -0.12872253 0.215069
-0.2296399 -0.27027 0.13715678 -0.42675298 -0.11299901 -0.014256212 -0.17170991 0.23076916
0.13831408 0.18303289 0.03208379 -0.18991205 0.11398606 0.0555512 -0.2603416 -0.008501791
0.15643346 0.21403086 -0.00989891 -0.3557663 -0.24849688 -0.087774575 -0.17162126 0.21814302
0.13696478 -0.26811397 0.08533833 0.0363898 0.41372982 -0.1670441 0.1671944 0.1778403
-0.21931358 -0.122048356 0.24745536 0.05017 -0.12968034 -0.1685133 -0.045833495 0.013489974
0.22256899 -0.27404186 -0.16344817 0.018857319 -0.0029045404 0.03903918 0.06458391 -0.111824095
0.13592099 -0.40208292 0.05772124 0.14180101 -0.0131047545 0.1477264 0.16343623 -0.44199514
-0.51411086 -0.1269779 0.25211674 0.51327723 -0.033987295 -0.08766543 0.030826336 -0.18537252
-0.1397721 -0.060867872 0.058918655 -0.017136944 -0.030084029 -0.25398156 0.08508764 0.056408994
-0.10452072 -0.16759236 -0.1652815 0.10376335 -0.2073239 -0.08232553 -0.16211453 -0.18701722
0.32330567 0.24585323 0.19198433 0.30607444 0.19974546 0.027185023 -0.39372212 0.03990515
-0.21317893 -0.2321053 0.021701664 -0.1196625 0.15557086 -0.06109753 0.16028406 -0.20655358
-0.21860781 0.14043505 0.10296967 0.054117005 -0.18597741 0.088564046 0.0488572 0.1851503
0.24967277 -0.24562864 -0.138258 -0.051621787 0.07892428 -0.048062798 -0.19058247 0.15886703
-0.09609449 -0.16496156 0.14372331 -0.024252564 0.111825295 -0.0043087285 0.101368085 -0.15847789
-0.0759219 0.02348016 0.11569302 -0.038477853 0.116610706 -0.22581191 -0.19880092 0.035590064
-0.26299387 -0.123596646 -0.2029101 -0.019766532 -0.27450606 -0.14482167 -0.16790384 -0.26535815
0.07600461 -0.031996418 0.10745191 -0.16256332 0.028695216 0.11256229 -0.2756453 -0.22737251
-0.31194636 -0.05655986 0.19884157 -0.1769364 0.08516897 -0.18824911 0.13186564 -0.3809053
00000000: aa8b 0e3d 2f55 813e 8a83 b4be e059 cbbd
00000010: 0345 02be 8319 2f3e 786d 923d 229e 0d3e
00000020: 4c59 583e d76b 4c3e 2c78 303d 97a5 51be
00000030: 9f42 3b3d 2b7f 5d3e 523f e43e 4326 ee3c
00000040: fe59 2e3e b74f 31be 25b5 18bc 2302 eb3b
00000050: 0322 89be ab52 953e 395f 81bd 215f cbbc
00000060: 9c85 39be 5610 6e3d 84a6 1e3d d07a 413e
00000070: a8c7 573d 1906 573d c15e 933d 9a1f d5be
00000080: aa7c 9c3d a81e b2bd 2e0d 87be cf04 c43c
00000090: cb30 9bbd d096 4b3e a277 cabd 014f 503d
000000a0: 6d37 66be 9586 0fbe 5b0f b83c e3db e9bd
000000b0: a785 35be 9b97 9d3d 3dd1 063e 3586 03be
000000c0: 6050 803e d183 003e 9227 6f3e 9555 f63d
000000d0: fcaa 0b3e 4198 acbd 01c9 f9bd 3d0a af3d
000000e0: f9cd c03e b05f 81bd ce8e 8d3e bb00 5d3c
000000f0: 0e14 0b3b 3c70 77be e36d 83be da86 acbe
00000100: ad33 b43d 4f47 12be f094 883d 0686 c83d
00000110: f5c3 3fbc 04b9 19be 1661 0f3d 266f 12be
00000120: 5e85 a6be 43f2 3bbe d873 5ebe d8ed fc3d
00000130: 386f 6f3e 58c1 403d 69b0 0b3d 83ee d1bd
00000140: 3077 83bd a7ff 56be bc64 8dbd b3c5 a13d
00000150: 070d c03d ce5f 0dbe 5869 64be fce7 883d
00000160: f4ac 42be 41ef 42be ec0e 2abd 332c 543e
00000170: bc0e 51be 1bb6 ccbb da3b c2bd f2fb 6cbd
00000180: 1e83 18be 59cc 22be 09f4 de3b 3644 07be
00000190: bc4a 013e 70b9 8e3c d7cf 03be 0c3b 5c3e
000001a0: b926 6bbe d460 8abe d472 0c3e 5e7f dabe
000001b0: 066c e7bd e392 69bc b9d4 2fbe c04e 6c3e
000001c0: 35a2 0d3e f96c 3b3e 4b6a 033d 4e78 42be
000001d0: 8671 e93d a889 633d 7f4b 85be 194b 0bbc
000001e0: 1830 203e e82a 5b3e 0a2f 22bc 0027 b6be
000001f0: f775 7ebe 28c3 b3bd 7cbd 2fbe e260 5f3e
00000200: 7f40 0c3e 3c46 89be ddc5 ae3d 790d 153d
00000210: 65d4 d33e 9c0d 2bbe 0235 2b3e c51b 363e
00000220: bd93 60be 7df4 f9bd f064 7d3e 0f7f 4d3d
00000230: ecca 04be c08e 2cbe e7bb 3bbd 0d05 5d3c
00000240: 20e9 633e 374f 8cbe f55e 27be aa7a 9a3c
00000250: 1a5a 3ebb 8ce7 1f3d 9244 843d 0804 e5bd
00000260: df2e 0b3e d0dd cdbe 1b6d 6c3d 4934 113e
00000270: 53b5 56bc 9745 173e d45b 273e 304d e2be
00000280: c59c 03bf 7f06 02be 7215 813e 2366 033f
00000290: 4336 0bbd ef89 b3bd 8387 fc3c 4bd2 3dbe
000002a0: 6b20 0fbe 9750 79bd b054 713d c762 8cbc
000002b0: c872 f6bc df09 82be 6e42 ae3d 1e0d 673d
000002c0: f60e d6bd 559d 2bbe 8e3f 29be e181 d43d
000002d0: b74c 54be 4a9a a8bd 5a01 26be 7181 3fbe
000002e0: 5288 a53e f3c0 7b3e 8a97 443e cab5 9c3e
000002f0: 138a 4c3e 20b3 de3c f295 c9be 9573 233d
00000300: 944b 5abe 03ad 6dbe b0c7 b13c 9d11 f5bd
00000310: f84d 1f3e 6741 7abd 8121 243e c882 53be
00000320: bada 5fbe 35ce 0f3e c3e1 d23d cba9 5d3d
00000330: dd70 3ebe 1161 b53d 7d1e 483d 0a98 3d3e
00000340: 38aa 7f3e 1386 7bbe 8193 0dbe 5e71 53bd
00000350: 0ea3 a13d 7fdd 44bd 0d28 43be 0aae 223e
00000360: 30cd c4bd afeb 28be 342c 133e 50ad c6bc
00000370: a904 e53d 3c30 8dbb 129a cf3d 0748 22be
00000380: f17c 9bbd 7759 c03c 76f0 ec3d f49a 1dbd
00000390: 98d1 ee3d 3d3b 67be 7892 4bbe e3c6 113d
000003a0: 22a7 86be 3d20 fdbd aac7 4fbe 6ced a1bc
000003b0: 0f8c 8cbe 224c 14be fcee 2bbe 06dd 87be
000003c0: 4ea8 9b3d ad0e 03bd bf0f dc3d 0077 26be
000003d0: 3b12 eb3c 0f87 e63d 6121 8dbe 57d4 68be
000003e0: 6fb7 9fbe 50ab 67bd 209d 4b3e d12e 35be
000003f0: 126d ae3d 60c4 40be c907 073e 0506 c3be

sequential/dense_4/MatMul f4 [16, 32]
-0.029797146 -0.06360729 0.3443746 -0.11964323 -0.12157768 -0.15607497 0.01630881 0.22467065
-0.03210017 -0.26535583 -0.28294712 -0.22589386 0.19189678 0.15245613 0.012899832 0.19780202
-0.17306106 -0.15088059 -0.016053556 -0.14250776 -0.11237053 0.07271869 -0.07506926 -0.25974315
-0.29680014 -0.04245545 -0.17465864 0.3408292 0.13662955 -0.32265913 -0.029957045 0.25471956
0.32462004 0.069667034 -0.12636188 0.26928395 0.0061657294 0.22770175 -0.0928661 0.018167073
-0.29762617 0.1512235 0.069125876 0.14757852 0.1875292 0.20036133 0.08985305 -0.21724598
-0.09343054 0.43162182 -0.30272293 -0.06627804 -0.36293757 0.23957741 -0.06676383 -0.023938641
-0.30474526 -0.17689827 -0.30748302 0.01611726 -0.4146379 0.08527016 0.1977576 0.18861993
0.24832621 0.06504198 0.51396394 0.15166162 -0.3339755 -0.19853516 0.1515005 -0.14813448
-0.23120415 0.23475844 0.13761628 0.048313335 -0.043731414 0.3869696 0.138661 -0.22202827
-0.032705087 0.0853425 -0.29823312 0.04673451 -0.022918275 0.060803972 -0.0010145259 0.15171221
0.32198083 0.05637477 0.17549971 -0.071122184 -0.10508673 0.041111168 -0.12091566 0.38660678
-0.29656315 -0.06178352 0.0328537 0.20150834 0.1535788 -0.04850443 -0.015004713 0.16165785
0.17032486 -0.28799853 -0.11012838 0.041421745 0.31048703 0.1214532 -0.19191962 -0.17784443
0.15188615 -0.0764954 -0.16482164 0.34190294 -0.038253378 0.081835866 0.08475166 0.058661494
-0.31537965 -0.16815396 -0.23978889 -0.19683473 0.03793521 -0.31039578 -0.2405051 -0.26773968
0.4135347 -0.17162284 -0.28334856 -0.26830545 -0.36700693 -0.10007769 -0.3812437 -0.11260395
0.18664315 0.13324268 -0.18484393 -0.19121614 0.2992297 -0.34515393 0.1186974 -0.054725982
-0.20393541 -0.06080479 -0.26003388 0.08485533 0.12724218 0.03687298 -0.25835294 -0.013412571
0.18913282 0.11746494 -0.28670838 0.16473925 -0.12102115 0.031085296 -0.114804566 -0.0057969033
-0.084297754 -0.115081616 0.14033307 -0.19231701 0.21406431 -0.08123648 0.19860274 -0.31040683
0.20066784 -0.2539215 -0.17007238 0.26014128 0.218295 -0.061808128 -0.3596314 -0.087165385
0.16415986 0.39799264 -0.030140694 -0.047991067 -0.023106463 0.015791638 -0.20303702 0.2566189
0.109936416 -0.3884697 -0.24587615 -0.11745421 -0.20875128 -0.3065113 0.29487398 -0.14569409
-0.08466038 0.23051214 -0.071825996 0.091818556 -0.055567678 -0.23972853 0.23632437 0.15409333
-0.2535703 0.058526658 0.21595256 -0.28530917 0.16643494 0.3356644 0.15563667 -0.23311587
0.24187477 -0.08976628 0.31537414 -0.19215554 -0.41777632 -0.09547537 0.34557182 -0.29825598
-0.060906243 -0.1829728 -0.27956867 0.109147534 -0.11047187 0.25986293 0.11366009 0.13771567
0.16474232 -0.33412182 0.35946637 0.08173813 -0.45516986 -0.339244 0.08445942 0.048299104
-0.29080552 0.038308576 0.21284017 0.28444812 -0.31266353 -0.36945215 -0.27888432 -0.020721946
-0.24320889 0.35389885 -0.2192975 -0.24325475 0.31055993 0.2065494 0.2597813 -0.12691206
-0.11580461 -0.124570616 0.22298396 0.13614911 -0.21334851 -0.0002908498 -0.35983086 0.05325026
00000000: 2519 f4bc 8a44 82bd de51 b03e 8307 f5bd
00000010: b8fd f8bd 1ed2 1fbe 0e9a 853c 1010 663e
00000020: 787b 03bd b8dc 87be 72de 90be b850 67be
00000030: 9780 443e 761d 1c3e d159 533c 9d8c 4a3e
00000040: eb36 31be 7180 1abe bf82 83bc 8eed 11be
00000050: 8522 e6bd 89ed 943d eabd 99bd 0efd 84be
00000060: 30f6 97be c4e5 2dbd b7d9 32be 2a81 ae3e
00000070: 9ee8 0b3e 9433 a5be 7a68 f5bc 9a6a 823e
00000080: 9934 a63e 97ad 8e3d 0265 01be 96df 893e
00000090: e309 ca3b a62a 693e 9530 bebd 1dd3 943c
000000a0: 7562 98be 55da 1a3e de91 8d3d d31e 173e
000000b0: a807 403e 852b 4d3e e004 b83d bb75 5ebe
000000c0: 8358 bfbd 89fd dc3e 80fe 9abe c8bc 87bd
000000d0: f4d2 b9be c853 753e 7abb 88bd f81a c4bc
000000e0: 9207 9cbe d224 35be 6a6e 9dbe 5808 843c
000000f0: 6b4b d4be 1fa2 ae3d f880 4a3e 9525 413e
00000100: 3a49 7e3e bb34 853d 2493 033f 2f4d 1b3e
00000110: d6fe aabe cd4c 4bbe f222 1b3e 91b0 17be
00000120: c8c0 6cbe 8464 703e 48eb 0c3e 34e4 453d
00000130: b61f 33bd e120 c63e 26fd 0d3e 615b 63be
00000140: c5f5 05bd 0cc8 ae3d 03b2 98be b06c 3f3d
00000150: 1bbf bbbc 960d 793d d7f9 84ba 725a 1b3e
00000160: acda a43e 3be9 663d 32b6 333e 82a8 91bd
00000170: b637 d7bd 2f64 283d a1a2 f7bd 53f1 c53e
00000180: 20d7 97be b710 7dbd 9a91 063d 3458 4e3e
00000190: c343 1d3e 95ac 46bd 54d6 75bc a389 253e
000001a0: a469 2e3e 8b74 93be fd8a e1bd d9a9 293d
000001b0: 28f8 9e3e 75bc f83d 9486 44be da1c 36be
000001c0: 0b88 1b3e 9fa9 9cbd 01c7 28be e70d af3e
000001d0: 93af 1cbd 9099 a73d 4792 ad3d 0947 703d
000001e0: 7179 a1be 8d30 2cbe 388b 75be 0b8f 49be
000001f0: f361 1b3d 32ec 9ebe f846 76be 2d15 89be
00000200: d2ba d33e e6bd 2fbe 1013 91be 555f 89be
00000210: 55e8 bbbe 88f5 ccbd 6032 c3be e69c e6bd
00000220: 621f 3f3e c570 083e ba47 3dbe 2ace 43be
00000230: a334 993e 04b8 b0be 9f17 f33d 5a28 60bd
00000240: 72d4 50be 720e 79bd 2923 85be a2c8 ad3d
00000250: c64b 023e 1f08 173d d646 84be 66c0 5bbc
00000260: 09ac 413e 7591 f03d 71cb 92be 68b1 283e
00000270: f0d9 f7bd 97a6 fe3c a81e ebbd f3f3 bdbb
00000280: 4da4 acbd e9af ebbd 79b3 0f3e c0ee 44be
00000290: ad33 5b3e 505f a6bd 845e 4b3e a5ed 9ebe
000002a0: df7b 4d3e 0002 82be 7427 2ebe 3d31 853e
000002b0: b988 5f3e 852a 7dbd 9b21 b8be c483 b2bd
000002c0: 8619 283e b1c5 cb3e 9ee9 f6bc 4892 44bd
000002d0: c449 bdbc 775d 813c f0e8 4fbe 8d63 833e
000002e0: 5826 e13d 80e5 c6be f5c6 7bbe d58b f0bd
000002f0: e5c2 55be 0def 9cbe b9f9 963e d530 15be
00000300: 6c62 adbd 600b 6c3e 8219 93bd 5e0b bc3d
00000310: ef9a 63bd 657b 75be 04ff 713e a4ca 1d3e
00000320: f7d3 81be a6b9 6f3d ab22 5d3e 0b14 92be
00000330: ec6d 2a3e 34dc ab3e 385f 1f3e edb5 6ebe
00000340: 05ae 773e 62d7 b7bd b878 a13e 6cc4 44be
00000350: c7e6 d5be 9788 c3bd caee b03e 02b5 98be
00000360: d378 79bd 395d 3bbe a023 8fbe be88 df3d
00000370: 133f e2bd c10c 853e 9fc6 e83d 5605 0d3e
00000380: 36b2 283e 0412 abbe fa0b b83e 5266 a73d
00000390: 060c e9be 64b1 adbe 0ff9 ac3d 48d5 453d
000003a0: 76e4 94be 74e9 1c3d c6f2 593e 2fa3 913e
000003b0: 6f15 a0be d528 bdbe edc9 8ebe 12c1 a9bc
000003c0: c00b 79be 3b32 b53e 868f 60be c617 79be
000003d0: b601 9f3e b081 533e 0e02 853e 3cf5 01be
000003e0: f82a edbd e11e ffbd e855 643e ac6a 0b3e
000003f0: 0878 5abe 337d 98b9 c03b b8be f21c 5a3d

sequential/dense_5/MatMul f4 [8, 16]
-0.018973714 0.35743803 0.58826745 0.036202025 0.37162632 0.05789093 -0.41799867 0.39844057
-0.23150288 0.43426302 0.17343526 -0.14536043 0.4449158 -0.51275 -0.051539212 -0.09162128
-0.35737145 0.29179177 -0.12109956 -0.25639203 -0.11906523 0.23106278 0.24295746 -0.38039884
-0.13501798 -0.16106881 -0.322199 0.3082759 -0.23901948 -0.03637044 0.053885713 -0.40436864
0.09744739 0.16821201 0.2579206 0.2983486 -0.34652853 -0.16210233 -0.11606564 -0.22699684
-0.13974117 0.45032555 -0.087354474 0.40457204 0.104896285 -0.11716506 -0.1856774 -0.003269556
-0.07913573 -0.1463329 -0.00444788 0.12746657 -0.1633184 -0.57224727 0.1755103 -0.023462297
-0.011512617 -0.45668373 0.51337814 0.124342054 0.0939792 -0.33614802 -0.6877275 -0.116782665
0.26853353 0.29211184 0.49642405 -0.6171665 0.26695585 0.0015165482 -0.10458142 -0.120816395
0.2759275 -0.03969286 0.13120034 0.017125342 -0.059121165 -0.18818626 -0.05341793 0.06280839
0.22983843 0.48018798 -0.11142728 -0.15424967 -0.17355815 0.041289855 0.24096067 -0.09152774
0.26118326 -0.20500422 -0.30194983 -0.27299583 0.018567668 -0.18501447 0.019880166 -0.19988598
0.31576502 0.0023091193 -0.12130238 0.014953234 0.4048407 -0.50918764 -0.19221978 0.11637228
-0.09010751 -0.20524108 0.2566577 0.046431642 0.034796156 0.4203576 -0.31835923 0.084920116
-0.2692887 0.1401919 0.49376115 0.07487434 0.3830406 0.39892468 -0.02713723 -0.38133186
0.092233896 -0.23437233 0.19860521 0.13831818 0.3001007 -0.39849722 0.31305888 0.3849335
00000000: c36e 9bbc 1e02 b73e b298 163f 9348 143d
00000010: ce45 be3e 0a1f 6d3d ec03 d6be 6700 cc3e
00000020: 170f 6dbe b957 de3e 0399 313e 5dd9 14be
00000030: 01cc e33e 9643 03bf c81a 53bd f0a3 bbbd
00000040: 64f9 b6be bb65 953e 0c03 f8bd d145 83be
00000050: 79d8 f3bd b99b 6c3e d7c9 783e a3c3 c2be
00000060: 2742 0abe 39ef 24be 44f7 a4be 57d6 9d3e
00000070: 86c1 74be 2cf9 14bd 44b7 5c3d 6809 cfbe
00000080: 7f92 c73d c53f 2c3e 2b0e 843e 26c1 983e
00000090: 306c b1be 27fe 25be d2b3 edbd dc71 68be
000000a0: 4f18 0fbe 1291 e63e e7e6 b2bd 1124 cf3e
000000b0: ddd3 d63d 3cf4 efbd 3722 3ebe 0c46 56bb
000000c0: ea11 a2bd 4bd8 15be 86bf 91bb 9986 023e
000000d0: f03c 27be cc7e 12bf f9b8 333e 0134 c0bc
000000e0: 6a9f 3cbc 73d2 e9be c06c 033f 0ca7 fe3d
000000f0: 2b78 c03d 981b acbe e90e 30bf c02b efbd
00000100: 3a7d 893e af8f 953e 4b2b fe3e a0fe 1dbf
00000110: 70ae 883e eac6 c63a c92e d6bd 966e f7bd
00000120: 5f46 8d3e fb94 22bd 6259 063e 724a 8c3c
00000130: 0929 72bd e6b3 40be c2cc 5abd afa1 803d
00000140: c45a 6b3e 33db f53e fc33 e4bd a0f3 1dbe
00000150: 3ab9 31be 8d1f 293d 65be 763e e572 bbbd
00000160: d0b9 853e a0ec 51be 2b99 9abe 1cc6 8bbe
00000170: 391b 983c 6f74 3dbe bbdb a23c e9ae 4cbe
00000180: f4ab a13e 9854 173b 626d f8bd 69fe 743c
00000190: 4847 cf3e 1f5a 02bf 43d5 44be 9754 ee3d
000001a0: 498a b8bd b82a 52be a368 833e 1b2f 3e3d
000001b0: 6a86 0e3d 1d39 d73e fbff a2be 99ea ad3d
000001c0: 35e0 89be 778e 0f3e 43ce fc3e b857 993d
000001d0: e61d c43e db3f cc3e e54e debc ee3d c3be
000001e0: 20e5 bc3d 4dff 6fbe 2a5f 4b3e 48a3 0d3e
000001f0: cda6 993e d407 ccbe 4149 a03e 0116 c53e

sequential/dense_6/MatMul f4 [4, 8]
0.1612363 -0.122087725 -0.0633795 -0.2300151 0.027752444 -0.32970476 -0.29027697 0.5565494
-0.45496976 0.42485675 -0.36019155 -1.4124446 -0.025470868 0.40651327 -0.29464933 0.4015561
0.121699825 0.36482272 -0.08157483 0.022163069 -0.31092185 -0.22111931 -0.0024573952 -0.022607386
0.4377537 -0.033357516 -0.5140112 -0.08194346 0.10186796 0.5538278 0.04625243 0.32447296
00000000: 211b 253e 2109 fabd 1ccd 81bd 1489 6bbe
00000010: 1859 e33c 10cf a8be 2f9f 94be 057a 0e3f
00000020: ccf1 e8be d386 d93e 076b b8be fcca b4bf
00000030: 48a8 d0bc 8222 d03e 47dc 96be c398 cd3e
00000040: c23d f93d 0bca ba3e b410 a7bd 538f b53c
00000050: 2631 9fbe 1a6d 62be 400c 21bb 2033 b9bc
00000060: 4121 e03e e4a1 08bd 3d96 03bf f9d1 a7bd
00000070: 26a0 d03d a9c7 0d3f 3073 3d3d 5221 a63e
