app/src/main/ml/Model_Quality_Condition.tflite (tflite, 181616 bytes, 14 tensors)

sequential_1/dense_9/BiasAdd/ReadVariableOp f4 [64]
0.24408123 0.0 0.0 -0.0098954495 -0.24336423 -0.01902411 -0.032726828 -0.010526719
0.16759789 0.2491637 -0.016261714 -0.0060052946 -0.019101942 0.0 0.075258985 -0.030912485
-0.0034664213 0.23375493 0.0 -0.006124985 -0.0029213622 0.14622635 0.0 0.0
0.17157929 0.0 0.12859717 0.22830601 -0.020501176 -0.01709517 -0.021176014 -0.0064090737
-0.00067730824 -0.0021296735 -0.00839331 -0.0072214603 -0.14728679 0.0 0.12915184 -0.045829266
0.0 -0.25292328 0.00927512 -0.009678456 0.0 -0.00743361 0.0 -0.09773171
-0.0060147713 0.0 -0.042061035 0.0 0.22623831 0.0 -0.013843693 0.0
-0.0075403433 0.14364333 0.24223973 0.0 0.21410407 -0.22087042 -0.029206036 0.23766717
00000000: 6ef0 793e 0000 0000 0000 0000 8620 22bc
00000010: 7934 79be 73d8 9bbc 910c 06bd 4278 2cbc
00000020: c89e 2b3e c524 7f3e 4937 85bc 10c8 c4bb
00000030: ad7b 9cbc 0000 0000 6221 9a3d 2e3c fdbc
00000040: e62c 63bb 745d 6f3e 0000 0000 19b4 c8bb
00000050: 5374 3fbb 5cbc 153e 0000 0000 0000 0000
00000060: 7bb2 2f3e 0000 0000 faae 033e 0dc9 693e
00000070: 15f2 a7bc 2c0b 8cbc 5279 adbc 3503 d2bb
00000080: 638d 31ba fe91 0bbb 1884 09bc 00a2 ecbb
00000090: 59d2 16be 0000 0000 6140 043e 78b7 3bbd
000000a0: 0000 0000 297f 81be acf6 173c 6392 1ebc
000000b0: 0000 0000 a495 f3bb 0000 0000 9027 c8bd
000000c0: 8f17 c5bb 0000 0000 3148 2cbd 0000 0000
000000d0: 04ab 673e 0000 0000 a8d0 62bc 0000 0000
000000e0: fc14 f7bb 3d17 133e b10d 783e 0000 0000
000000f0: 193e 5b3e db2b 62be 7f41 efbc 065f 733e

sequential_1/dense_8/BiasAdd/ReadVariableOp f4 [128]
-0.04302828 0.20842011 -0.0015747888 0.17187348 0.0 0.20893668 -0.05821761 0.0
0.0 -0.0038924138 -0.002314282 0.0 0.16522248 -0.005293832 0.17822433 -0.06098515
0.17897055 0.1863278 0.19919181 0.14972727 0.0016632767 0.14271516 0.0 0.0
-0.069791265 0.0 0.0 -0.009810418 0.22522046 -0.037142172 -0.03597516 -0.006561075
-0.0039823097 0.1937467 0.0 0.17277981 0.0 0.0 -0.0049655605 0.18970552
0.0 0.0 0.19668092 -0.054051455 0.16211739 -0.011769288 -0.00959631 -0.007922246
0.0 -0.20156404 -0.05932893 -0.026355412 -0.045042574 0.0 -0.035644345 0.0
0.228027 -0.046058334 0.07001691 0.0 0.0 0.0 -0.04625266 -0.004073548
-0.024228513 0.0 -0.06787948 -0.04569588 0.0 -0.015499827 -0.048893463 0.19152488
-0.05386853 -0.008636394 -0.033882804 -0.022372661 -0.009501143 -0.027902996 -0.053130858 -0.053042457
-0.0045090485 -0.05879569 -0.014334639 -0.010347166 -0.008231367 -0.007473982 0.19263206 0.20375158
-0.008886709 -0.0064004757 0.1441523 0.19116679 0.0 0.20187299 -0.07591951 -0.005556431
-0.05507709 -0.03248582 -0.029990312 -0.0050808596 0.0 -0.078690335 0.1951321 0.043411236
0.18785425 0.0 0.20284754 -0.044905555 -0.009771143 0.14742315 -0.0072445977 -0.005554607
-0.056335382 -0.08231118 -0.06286003 -0.05645363 0.0 -0.0075211492 0.1990819 0.18147172
-0.008419186 0.0 0.0 0.0 -0.021003982 -0.060472913 -0.046343677 0.15685385
00000000: 6c3e 30bd 156c 553e 2569 ceba 9aff 2f3e
00000010: 0000 0000 7ff3 553e 9775 6ebd 0000 0000
00000020: 0000 0000 de17 7fbb 36ab 17bb 0000 0000
00000030: 1530 293e e277 adbb 7080 363e 91cb 79bd
00000040: 0e44 373e b7cc 3e3e f0f8 4b3e 1b52 193e
00000050: 4e02 da3a ec23 123e 0000 0000 0000 0000
00000060: b9ee 8ebd 0000 0000 0000 0000 e0bb 20bc
00000070: 31a0 663e 6422 18bd b05a 13bd 49fe d6bb
00000080: 097e 82bb 8965 463e 0000 0000 31ed 303e
00000090: 0000 0000 0000 0000 24b6 a2bb 2a42 423e
000000a0: 0000 0000 0000 0000 b966 493e 0f65 5dbd
000000b0: 1a02 263e f9d3 40bc d739 1dbc 4fcc 01bc
000000c0: 0000 0000 ce66 4ebe e402 73bd 4ee7 d7bc
000000d0: 907e 38bd 0000 0000 ceff 11bd 0000 0000
000000e0: e97f 693e aaa7 3cbd 0765 8f3d 0000 0000
000000f0: 0000 0000 0000 0000 6e73 3dbd 667b 85bb
00000100: e07a c6bc 0000 0000 6604 8bbd 9a2b 3bbd
00000110: 0000 0000 fdf2 7dbc 8344 48bd 191f 443e
00000120: 3fa5 5cbd a97f 0dbc b2c8 0abd df46 b7bc
00000130: afaa 1bbc d394 e4bc be9f 59bd 0c43 59bd
00000140: a4c0 93bb c0d3 70bd d5db 6abc 2987 29bc
00000150: dbdc 06bc 4ee8 f4bb 5741 453e 41a4 503e
00000160: 8f99 11bc 15bb d1bb a99c 133e 3ac1 433e
00000170: 0000 0000 cbb7 4e3e b07b 9bbd b912 b6bb
00000180: 8498 61bd da0f 05bd 3eae f5bc 577d a6bb
00000190: 0000 0000 6628 a1bd b6d0 473e fbcf 313d
000001a0: dd5c 403e 0000 0000 44b7 4f3e e3ee 37bd
000001b0: 2517 20bc 18f6 163e 1764 edbb 6c03 b6bb
000001c0: eebf 66bd c492 a8bd c2bc 80bd ec3b 67bd
000001d0: 0000 0000 f973 f6bb 20dc 4b3e b9d3 393e
000001e0: a0f0 09bc 0000 0000 0000 0000 0000 0000
000001f0: 8b10 acbc 72b2 77bd ded2 3dbd 4c9e 203e

sequential_1/dense_10/BiasAdd/ReadVariableOp f4 [32]
-0.03242341 -0.0652724 -0.009257968 -0.006900181 0.07535206 0.055774007 0.0 -0.08781251
-0.048145667 0.06054979 0.20702134 -0.0090469755 -0.023132497 -0.2445195 0.25233275 -0.003573867
-0.06361973 -0.006005339 -0.26048672 -0.028154183 -0.032868 0.15673855 -0.08253296 0.031146176
-0.16960879 -0.007576385 0.26328763 -0.008838665 0.21824875 -0.10476115 0.1382125 -0.10426249
00000000: 69ce 04bd 89ad 85bd bbae 17bc ea1a e2bb
00000010: 2e52 9a3d 4973 643d 0000 0000 0cd7 b3bd
00000020: 6434 45bd 0e03 783d 67fd 533e c439 14bc
00000030: 5d80 bdbc 5263 7abe c231 813e 8a37 6abb
00000040: 104b 82bd 6fc8 c4bb 845e 85be 9aa3 e6bc
00000050: 99a0 06bd 1280 203e 0a07 a9bd 4426 ff3c
00000060: edad 2dbe 5343 f8bb a3cd 863e 0cd0 10bc
00000070: 9a7c 5f3e 048d d6bd 9487 0d3e 9387 d5bd

sequential_1/dense_11/BiasAdd/ReadVariableOp f4 [16]
-0.27737668 -0.21848573 0.034565 -0.0954968 0.069267504 0.124636605 -0.2758664 -0.008299973
0.2755049 0.22731824 0.006725185 -0.038804088 0.0 -0.0060053566 0.0 -0.048127845
00000000: 5104 8ebe b9ba 5fbe 0894 0d3d d493 c3bd
00000010: 1fdc 8d3d 7a41 ff3d 5c3e 8dbe 9cfc 07bc
00000020: fa0e 8d3e 1dc6 683e f15e dc3b 09f1 1ebd
00000030: 0000 0000 95c8 c4bb 0000 0000 b421 45bd

sequential_1/dense_12/BiasAdd/ReadVariableOp f4 [8]
0.00569302 0.14538938 0.20710734 -0.29199985 -0.07412975 -0.049272716 -0.0882319 -0.06280243
00000000: 838c ba3b f4e0 143e f213 543e 0181 95be
00000010: 57d1 97bd 30d2 49bd edb2 b4bd 8f9e 80bd

sequential_1/dense_13/BiasAdd/ReadVariableOp f4 [5]
-0.2245099 -0.10019308 0.14692745 0.33255082 -0.3326956
00000000: ece5 65be 0832 cdbd 2674 163e 1a44 aa3e
00000010: 1457 aabe

sequential_1/dense_7/BiasAdd/ReadVariableOp f4 [256]
0.0 0.0 0.09534491 0.0 0.0 -0.035146393 0.13884835 0.0
0.0 0.0 -0.034339793 -0.0354385 0.0 -0.033808492 0.0 0.0
-0.046136424 -0.020122357 0.0 -0.026258657 0.0 0.104648665 -0.030620355 -0.033524763
0.0 -0.02671933 -0.027739028 -0.028229306 0.0 -0.026392823 0.11337952 0.08096134
0.1409846 0.0 0.0 0.12512584 -0.02803705 0.0 0.0 0.0
0.0 -0.025718868 -0.03016038 -0.005995341 0.0 0.0 0.0 -0.026973564
-0.035785403 0.0 0.0 -0.023320423 -0.026054192 -0.0091478685 0.0 -0.005996643
-0.020613302 -0.02972706 0.0 -0.032210913 0.0 0.16276656 0.0 0.0
-0.033217683 0.0 0.0 0.0 0.0 0.0 0.0 -0.03139121
-0.026440723 0.0 -0.007953657 0.0 0.0 0.12434715 0.0 -0.033166222
-0.034245353 0.0 0.0 0.0 -0.028044205 0.0 -0.058935832 0.0
0.0 0.0 -0.035203435 -0.04098852 -0.023726631 -0.020113278 0.0 0.0
0.0 -0.022951603 -0.029233657 0.0 0.0662634 -0.02883558 0.0 0.0
0.10999093 -0.023696717 0.0 0.0 -0.02765535 -0.021274386 -0.022003315 0.0
-0.033752464 0.0 0.14667916 0.0 0.14835495 -0.021676902 0.0 0.034272134
0.0 0.0 0.0 0.0 -0.020204965 0.0 -0.03164171 0.0
0.0 -0.030614471 -0.031055773 0.08192285 0.0 0.0 -0.034631085 0.11105437
0.0 0.0 -0.04866316 -0.020392483 0.0 0.0 0.0 0.0
-0.023538413 -0.038163718 -0.030988134 0.0 0.13105835 0.0 -0.029847993 -0.014070681
0.0 -0.024358006 0.0 0.0 -0.02544142 -0.072459206 -0.034207527 0.0
0.0 -0.025609178 -0.025273088 0.0 0.0 0.111722626 0.0 0.15165274
-0.030479645 -0.016375605 -0.032176834 -0.01194153 0.028028287 -0.023312965 0.0 0.0
0.0 -0.03274175 0.0 -0.031136742 0.13298444 0.0 0.0 0.112610646
0.0 -0.03470922 0.0 0.009305529 0.07034288 -0.033801444 -0.032463625 0.0
0.0 -0.028928062 0.148044 0.13144279 0.0 0.14962293 -0.02619563 -0.03338649
-0.027359497 0.0 0.0 0.0 -0.030372541 0.0 -0.0090623805 0.15934205
-0.03530428 0.0 0.0 0.0 -0.033340648 0.119034365 0.0 0.0
0.0 0.11148804 -0.019241033 0.0 0.17946438 0.0 -0.032860503 0.0
-0.03554236 0.10853054 -0.031593833 0.0 0.0 0.0 -0.023564804 0.0
-0.029481348 0.1137513 0.0 0.095526464 0.0 0.12224725 -0.027742714 0.0
0.0 0.0 0.0 0.0 0.0 -0.021656295 0.100066304 -0.032746363
0.0 -0.03202993 0.0 -0.02969954 -0.009229918 0.0 0.0 0.0
00000000: 0000 0000 0000 0000 3144 c33d 0000 0000
00000010: 0000 0000 aaf5 0fbd 432e 0e3e 0000 0000
00000020: 0000 0000 0000 0000 e2a7 0cbd f627 11bd
00000030: 0000 0000 c67a 0abd 0000 0000 0000 0000
00000040: 8cf9 3cbd a4d7 a4bc 0000 0000 651c d7bc
00000050: 0000 0000 0a52 d63d 8ad7 fabc 4351 09bd
00000060: 0000 0000 7fe2 dabc f53c e3bc 2541 e7bc
00000070: 0000 0000 c335 d8bc 8633 e83d 0fcf a53d
00000080: 445e 103e 0000 0000 0000 0000 fd20 003e
00000090: f5ad e5bc 0000 0000 0000 0000 0000 0000
000000a0: 0000 0000 60b0 d2bc e712 f7bc 9174 c4bb
000000b0: 0000 0000 0000 0000 0000 0000 aaf7 dcbc
000000c0: b793 12bd 0000 0000 0000 0000 790a bfbc
000000d0: 9a6f d5bc f1e0 15bc 0000 0000 7d7f c4bb
000000e0: 3add a8bc 2a86 f3bc 0000 0000 97ef 03bd
000000f0: 0000 0000 47ac 263e 0000 0000 0000 0000
00000100: 440f 08bd 0000 0000 0000 0000 0000 0000
00000110: 0000 0000 0000 0000 0000 0000 1294 00bd
00000120: 379a d8bc 0000 0000 0e50 02bc 0000 0000
00000130: 0000 0000 b8a9 fe3d 0000 0000 4ed9 07bd
00000140: db44 0cbd 0000 0000 0000 0000 0000 0000
00000150: f6bc e5bc 0000 0000 b366 71bd 0000 0000
00000160: 0000 0000 0000 0000 7a31 10bd 94e3 27bd
00000170: 5a5e c2bc 9ac4 a4bc 0000 0000 0000 0000
00000180: 0000 0000 0005 bcbc 6c7b efbc 0000 0000
00000190: 1bb5 873d 9838 ecbc 0000 0000 0000 0000
000001a0: ed42 e13d 9e1f c2bc 0000 0000 0000 0000
000001b0: 798d e2bc 9f47 aebc 4c40 b4bc 0000 0000
000001c0: 0640 0abd 0000 0000 1033 163e 0000 0000
000001d0: 5cea 173e c293 b1bc 0000 0000 f060 0c3d
000001e0: 0000 0000 0000 0000 0000 0000 0000 0000
000001f0: e284 a5bc 0000 0000 bd9a 01bd 0000 0000
00000200: 0000 0000 33cb fabc ad68 febc 2bc7 a73d
00000210: 0000 0000 0000 0000 53d9 0dbd 7970 e33d
00000220: 0000 0000 0000 0000 0653 47bd 230e a7bc
00000230: 0000 0000 0000 0000 0000 0000 0000 0000
00000240: a1d3 c0bc 8f51 1cbd d4da fdbc 0000 0000
00000250: 2934 063e 0000 0000 c783 f4bc b788 66bc
00000260: 0000 0000 718a c7bc 0000 0000 0000 0000
00000270: 866a d0bc 7e65 94bd 311d 0cbd 0000 0000
00000280: 0000 0000 57ca d1bc 8209 cfbc 0000 0000
00000290: 0000 0000 d5ce e43d 0000 0000 db4a 1b3e
000002a0: 73b0 f9bc 2226 86bc dbcb 03bd 68a6 43bc
000002b0: 949b e53c d5fa bebc 0000 0000 0000 0000
000002c0: 0000 0000 371c 06bd 0000 0000 7b12 ffbc
000002d0: 132d 083e 0000 0000 0000 0000 69a0 e63d
000002e0: 0000 0000 412b 0ebd 0000 0000 3876 183c
000002f0: ee0f 903d 6273 0abd 94f8 04bd 0000 0000
00000300: 0000 0000 8bfa ecbc d998 173e f098 063e
00000310: 0000 0000 c136 193e 3898 d6bc 46c0 08bd
00000320: 0621 e0bc 0000 0000 0000 0000 0000 0000
00000330: d6cf f8bc 0000 0000 617a 14bc 902a 233e
00000340: 399b 10bd 0000 0000 0000 0000 0000 0000
00000350: 3490 08bd 4ac8 f33d 0000 0000 0000 0000
00000360: 0000 0000 d753 e43d 5f9f 9dbc 0000 0000
00000370: 83c5 373e 0000 0000 bc98 06bd 0000 0000
00000380: de94 11bd 4245 de3d 8968 01bd 0000 0000
00000390: 0000 0000 0000 0000 fa0a c1bc 0000 0000
000003a0: de82 f1bc 71f6 e83d 0000 0000 61a3 c33d
000003b0: 0000 0000 c45c fa3d b044 e3bc 0000 0000
000003c0: 0000 0000 0000 0000 0000 0000 0000 0000
000003d0: 0000 0000 8b68 b1bc 90ef cc3d 0d21 06bd
000003e0: 0000 0000 d131 03bd 0000 0000 734c f3bc
000003f0: 1539 17bc 0000 0000 0000 0000 0000 0000

sequential_1/dense_7/MatMul f4 [256, 1]
-0.0112158805 -0.10444076 0.04157005 -0.09690474 -0.08579381 0.31374362 -0.06884079 -0.051312365
-0.1432508 -0.029159173 0.3066881 0.32739368 -0.051391453 0.31153312 -0.05276046 -0.10754147
0.11807124 0.17478566 -0.10297726 0.23011649 -0.13667248 0.2186263 0.27008146 0.3079186
-0.009840533 0.23481426 0.24679445 0.2526754 -0.12885453 0.2307724 0.06896034 0.095139176
-0.089232996 -0.096875995 -0.043468036 -0.095170856 0.25906965 -0.036389492 -0.004735574 -0.104789466
-0.066943936 0.22654778 0.28498513 -0.004382454 -0.017084658 -0.013803586 -0.0023524165 0.23675135
0.34876856 -0.101190954 -0.1453146 0.19927335 0.22559951 0.0009237575 -0.03191205 -0.0057277028
0.17503257 0.26366067 -0.06781722 0.28225932 -0.124849945 0.0084391255 -0.057283796 -0.12474772
0.30048338 -0.048327833 -0.083549954 -0.07512513 -0.12233867 -0.02002412 -0.023921281 0.29590324
0.22933684 -0.11876252 0.001369852 -0.0017479807 -0.11881323 0.017618489 -0.02004245 0.29811347
0.30774456 -0.06946473 -0.032076716 -0.09501599 0.24732201 -0.08218124 0.097736 -0.041403055
-0.024200395 -0.10751739 0.3066114 0.10138563 0.2031107 0.17128865 -0.010039404 -0.15279318
-0.037895612 0.19738281 0.2540627 -0.004968539 0.08652806 0.26266134 -0.08558678 -0.024394855
-0.12238638 0.20496249 -0.13281329 -0.0713523 0.24250357 0.18223362 0.18807864 -0.09064767
0.30330893 -0.04542534 -0.081732966 -0.11532255 0.12695797 0.18460949 -0.12492674 0.036369193
-0.14760342 -0.04192359 -0.04087796 -0.046756536 0.17525804 -0.009917945 0.2834796 -0.08178692
-0.06635557 0.26887843 0.16165271 0.017398247 -0.003363356 -0.017524287 0.30825257 -0.080219716
-0.13965322 -0.08156281 0.12252301 0.1774858 -0.05708617 -0.08302318 -0.08036597 -0.0066773593
0.2010896 0.13481459 0.27145854 -0.0030134618 -0.05398911 -0.060565703 0.27435517 0.0069401255
-0.11028757 0.21248642 -0.031172507 -0.11081747 0.22176576 0.1374766 0.046629816 -0.13529032
-0.15114024 0.22934927 0.2206193 -0.14930148 -0.018665895 -0.082966186 -0.07662513 0.05561707
0.2669259 0.04421442 0.3162525 0.15694757 0.08349909 0.19855373 -0.10561105 -0.12546684
-0.06883585 0.292725 -0.107010186 0.27728346 0.054875165 -0.04972817 -0.1265518 0.07560437
-0.13441245 0.3076899 -0.080125354 0.27251244 0.061988544 0.3333161 0.2903689 -0.11844337
-0.10047123 0.25094068 -0.05800172 -0.06416616 -0.13501944 -0.02745405 0.23286974 0.29526883
0.24010608 -0.13523306 -0.07121959 -0.15133722 0.27212432 -0.03948535 0.24915066 -0.00073277426
0.3273719 -0.12566032 -0.031849176 -0.03703942 0.3023975 0.0013868107 -0.15239888 -0.05797661
-0.024309322 -0.017917398 0.16695857 -0.068111345 0.19852433 -0.08180219 0.3112219 -0.12738822
0.32081255 0.015299183 0.28248182 -0.053322457 -0.027647182 -0.07386821 0.1998105 -0.076439925
0.15262789 -0.012205755 -0.12435673 -0.04838598 -0.07128826 -0.061798435 0.24981028 -0.037193477
-0.14433269 -0.11028655 -0.105597936 -0.14396994 -0.097253434 0.18461101 0.023173813 0.28955224
-0.118939936 0.2845089 -0.015489787 0.15329021 0.002793621 -0.10563684 -0.12674975 -0.12259509
00000000: d0c2 37bc 0ae5 d5bd 5b45 2a3d fe75 c6bd
00000010: aab4 afbd 01a3 a03e 66fc 8cbd ea2c 52bd
00000020: 56b0 12be 38df eebc 3906 9d3e 25a0 a73e
00000030: d87f 52bd 4581 9f3e 5a1b 58bd b43e dcbd
00000040: 56cf f13d 03fb 323e bee5 d2bd a8a3 6b3e
00000050: dff3 0bbe 93df 5f3e 1e48 8a3e 82a7 9d3e
00000060: 303a 21bc 2673 703e afb7 7c3e ac5e 813e
00000070: 71f2 03be 9a4f 6c3e 143b 8d3d 54d8 c23d
00000080: cabf b6bd ec66 c6bd 8a0b 32bd f0e8 c2bd
00000090: c7a4 843e 260d 15bd e02c 9bbb dc9b d6bd
000000a0: e719 89bd 24fc 673e 92e9 913e b09a 8fbb
000000b0: 20f5 8bbc 7028 62bc 002b 1abb f26e 723e
000000c0: cb91 b23e 343d cfbd 5acd 14be 500e 4c3e
000000d0: 8f03 673e 5128 723a 36b6 02bd 74af bbbb
000000e0: bd3b 333e 88fe 863e c1e3 8abd 4b84 903e
000000f0: 54b1 ffbd 4244 0a3c 6aa2 6abd bc7b ffbd
00000100: f5d8 993e 68f3 45bd 3d1c abbd 34db 99bd
00000110: b28c fabd a009 a4bc 90f6 c3bc a180 973e
00000120: 47d7 6a3e c439 f3bd 9b8c b33a 801c e5ba
00000130: 5a54 f3bd a654 903c 1030 a4bc 54a2 983e
00000140: b290 9d3e 8643 8ebd e062 03bd be97 c2bd
00000150: fb41 7d3e a34e a8bd d029 c83d 4096 29bd
00000160: e83f c6bc 1432 dcbd 2bfc 9c3e 45a3 cf3d
00000170: 40fc 4f3e 4b66 2f3e 507c 24bc d175 1cbe
00000180: 6e38 1bbd b81e 4a3e 8214 823e 20cf a2bb
00000190: a035 b13d 8c7b 863e 1f48 afbd b8d7 c7bc
000001a0: b6a5 fabd b0e1 513e 3500 08be 2821 92bd
000001b0: db52 783e 739b 3a3e b097 403e 7ca5 b9bd
000001c0: 4f4b 9b3e ec0f 3abd 9d63 a7bd 3b2e ecbd
000001d0: 4501 023e 450a 3d3e 97d9 ffbd ddf7 143d
000001e0: 5a25 17be 12b8 2bbd a66f 27bd c883 3fbd
000001f0: d876 333e e07e 22bc 3d24 913e e77f a7bd
00000200: 6ee5 87bd 6faa 893e 4a88 253e c586 8e3c
00000210: c06b 5cbb 188f 8fbc 48d3 9d3e 3c4a a4bd
00000220: 4101 0fbe 670a a7bd 58ed fa3d d6be 353e
00000230: 30d3 69bd 0f08 aabd ea96 a4bd c0cd dabb
00000240: 6fea 4d3e d60c 0a3e 9dfc 8a3e 807d 45bb
00000250: af23 5dbd be13 78bd 4878 8c3e fe69 e33b
00000260: 73de e1bd 0a96 593e 7c5d ffbc 45f4 e2bd
00000270: 9016 633e aac6 0c3e e8fe 3e3d 8c89 0abe
00000280: 82c4 1abe 89da 6a3e 07ea 613e 7de2 18be
00000290: 38e9 98bc 2dea a9bd a3ed 9cbd bace 633d
000002a0: 83aa 883e 2e1a 353d d9eb a13e ddb6 203e
000002b0: 9201 ab3d ab51 4b3e 9b4a d8bd 617a 00be
000002c0: cff9 8cbd 0de0 953e 2828 dbbd 19f8 8d3e
000002d0: c8c4 603d c4af 4bbd cc96 01be 77d6 9a3d
000002e0: 6ba3 09be 8889 9d3e c318 a4bd c086 8b3e
000002f0: b3e7 7d3d 68a8 aa3e 3cab 943e 7092 f2bd
00000300: dcc3 cdbd 4c7b 803e 3693 6dbd 8c69 83bd
00000310: 8942 0abe 51e7 e0bc 6875 6e3e 7a2d 973e
00000320: 5ede 753e 897a 0abe 94db 91bd 25f8 1abe
00000330: e153 8b3e 64bb 21bd 5a21 7f3e a617 40ba
00000340: 4a9d a73e 19ad 00be 4874 02bd a6b6 17bd
00000350: d8d3 9a3e a5c5 b53a 740e 1cbe e278 6dbd
00000360: 5824 c7bc 82c7 92bc 30f7 2a3e f67d 8bbd
00000370: f649 4b3e e887 a7bd 7a58 9f3e 0f72 02be
00000380: 8b41 a43e 6da9 7a3c 75a1 903e a668 5abd
00000390: 587c e2bc 3748 97bd 209b 4c3e 898c 9cbd
000003a0: 7c4a 1c3e a6fa 47bc beae febd 6130 46bd
000003b0: 94ff 91bd 5b20 7dbd 44ce 7f3e 3058 18bd
000003c0: f3cb 13be eadd e1bd bb43 d8bd db6c 13be
000003d0: cf2c c7bd ab0a 3d3e 02d7 bd3c 3140 943e
000003e0: c896 f3bd 27ab 913e e0c8 7dbc 1cf8 1c3e
000003f0: 2f15 373b 2158 d8bd b0ca 01be 2213 fbbd

sequential_1/dense_8/MatMul f4 [128, 256]
-0.07302156 -0.020818293 0.084913105 0.08743611 0.10990533 0.106764 0.06470796 -0.054559022
0.03524989 -0.00052660704 0.15102114 0.3388893 0.08414093 0.15336052 -0.09316695 0.055190712
0.1334253 0.06377753 -0.042461574 0.2828249 0.11286408 -0.0016708153 0.3369445 0.37897348
0.052865475 0.18904652 0.27527633 0.27016634 0.010898322 0.24657518 0.03153081 0.008516793
0.015630323 -0.07947329 -0.03519234 -0.12539679 0.13340612 0.10809356 -0.054156333 -0.019103527
-0.104477406 0.3303221 0.32303944 0.054419536 -0.002290219 0.047260582 0.011337727 0.22782758
0.32277492 -0.041491866 0.0360007 0.040042043 0.16274329 -0.064648055 -0.075359315 0.07074266
0.17625813 0.2775813 0.05550918 0.26900372 -0.02827102 0.062176317 0.06770167 -0.0579378
0.39336395 0.12091312 0.06705105 -0.06719914 -0.11561221 -0.076574236 0.11721212 0.3915779
0.13694637 -0.028041244 0.061319724 0.11950478 -0.03553912 0.076425165 -0.08809468 0.3796191
0.19342808 0.115762174 0.07317498 0.10212618 0.13293327 -0.020376235 0.16694474 0.07364917
-0.011348486 -0.10808185 0.012897211 -0.053409558 0.28264055 0.10582944 0.071688354 -0.0028229058
0.085678965 0.0878958 0.31484205 0.09305197 -0.073432624 0.15142755 0.07257506 -0.03558582
-0.11015713 0.22371812 -0.028639138 -0.10764772 0.29436266 0.06755708 0.20320606 -0.0072081983
0.38340834 0.10021925 -0.025083205 0.02335596 0.04896202 0.09793092 -0.0029317737 -0.06547371
-0.062131494 -0.099420965 -0.07933441 -0.0042274 0.035539526 0.037647396 0.22790731 -0.013413906
-0.10537019 0.3385857 0.112781905 0.1598684 -0.12246063 0.027814329 0.1591637 0.09498518
0.049927026 -0.054162472 0.12290238 0.17521274 -0.11271757 0.07828444 -0.09197384 0.021025032
0.13979597 0.07905223 0.17656516 -0.089663476 -0.1037581 -0.09813836 0.3165082 0.019897072
-0.025024444 0.19386971 -0.10071775 -0.086286336 0.31124905 -0.030162826 0.07066732 -0.07882777
-0.1224058 0.32397127 0.32116792 -0.039444357 0.05148211 -0.04174529 -0.017850459 0.040330097
0.3363434 0.0984013 0.2807057 -0.05724249 0.0067102723 0.19926648 0.038912028 0.10093382
-0.06062004 0.1952824 0.07350534 0.32832325 0.120962225 -0.10212195 -0.008723408 -0.035870165
-0.11950603 0.15947732 0.115787834 0.092199944 0.01010595 0.270955 0.35519123 -0.027587444
-0.1084173 0.27506357 -0.095322795 -0.044575423 0.038420916 -0.026199799 0.33071324 0.15751973
0.10682041 0.12264037 0.043505758 0.11779499 0.24491388 -0.068487465 0.09281021 0.055366784
0.3758774 0.028294772 0.0996421 0.12107885 0.099864215 -0.08070101 -0.11716765 0.06051925
-0.04186046 -0.03236927 0.04355121 0.10490286 0.14670017 0.011368096 0.35639974 -0.022271782
0.3133081 -0.026831156 0.1743058 0.029264122 -0.0819509 0.023253381 0.28135195 -0.06987578
0.1692121 -0.053920086 0.032179594 0.05260858 0.08210316 0.017994512 0.27294955 0.025682539
0.10719627 0.043168515 0.037532 -0.004280597 -0.111793816 0.24252641 -0.062345542 0.22945724
-0.10477987 0.17259946 0.049304783 0.071982786 -0.0704298 0.026543617 0.051851094 -0.041730046
00000000: 548c 95bd 208b aabc ece6 ad3d b411 b33d
00000010: 0c16 e13d 16a7 da3d 9b85 843d 4879 5fbd
00000020: 3062 103d 000c 0aba 49a5 1a3e e682 ad3e
00000030: 1452 ac3d 8a0a 1d3e 50ce bebd a80f 623d
00000040: a4a0 083e cb9d 823d 30ec 2dbd 6dce 903e
00000050: 4825 e73d 42ff daba fd83 ac3e d008 c23e
00000060: 7889 583d 6995 413e 05f1 8c3e 3e53 8a3e
00000070: e08e 323c 347e 7c3e 7326 013d 058a 0b3c
00000080: 2a0b 803c e4c2 a2bd d825 10bd 0468 00be
00000090: 9d9b 083e 2860 dd3d 08d3 5dbd 007f 9cbc
000000a0: 40f8 d5bd fa1f a93e 6d65 a53e 05e7 5e3d
000000b0: 8017 16bb 5094 413d e0c1 393c a24b 693e
000000c0: c142 a53e 60f3 29bd 7875 133d 2003 243d
000000d0: 2da6 263e 3366 84bd fc55 9abd 87e1 903d
000000e0: 037d 343e 231f 8e3e 985d 633d dbba 893e
000000f0: a098 e7bc 98ac 7e3d 2ca7 8a3d 3050 6dbd
00000100: 0067 c93e 4ca1 f73d 1052 893d b49f 89bd
00000110: 18c6 ecbd f4d2 9cbd e80c f03d e67c c83e
00000120: ab3b 0c3e c0b6 e5bc 642a 7b3d ecbe f43d
00000130: 7891 11bd cc84 9c3d fc6a b4bd 6f5d c23e
00000140: 0312 463e b814 ed3d c4dc 953d 8827 d13d
00000150: a91f 083e 10ec a6bc 90f3 2a3e 60d5 963d
00000160: 00ef 39bc 045a ddbd d34e 533c fbc3 5abd
00000170: 43b6 903e 1bbd d83d 58d1 923d 8000 39bb
00000180: 7478 af3d b702 b43d fa32 a13e 0892 be3d
00000190: d863 96bd d30f 1b3e 3ca2 943d 70c2 11bd
000001a0: 109a e1bd 5d16 653e a09c eabc 6876 dcbd
000001b0: b4b6 963e 5e5b 8a3d 4015 503e c032 ecbb
000001c0: 194e c43e c03f cd3d 4b7b cdbc 0055 bf3c
000001d0: 668c 483d 0290 c83d 0023 40bb 1517 86bd
000001e0: 987d 7ebd 389d cbbd 147a a2bd 0086 8abb
000001f0: e591 113d 2834 1a3d 8960 693e 00c6 5bbc
00000200: 54cc d7bd 1b5b ad3e 33fa e63d 8bb4 233e
00000210: a4cc fabd e0da e33c cffb 223e 9787 c23d
00000220: 4880 4c3d 78d9 5dbd 3eb4 fb3d f86a 333e
00000230: 78d8 e6bd 9853 a03d c85c bcbd b03c ac3c
00000240: ad26 0f3e 23e6 a13d 7fcd 343e 7ca1 b7bd
00000250: 207f d4bd c4fc c8bd 5d0d a23e 2fff a23c
00000260: 1000 cdbc c885 463e 1c45 cebd e4b6 b0bd
00000270: 095c 9f3e 0818 f7bc 07ba 903d 7470 a1bd
00000280: e4af fabd 90df a53e 1f70 a43e 6890 21bd
00000290: e8de 523d 1cfd 2abd 203b 92bc 2c31 253d
000002a0: 3435 ac3e 9f86 c93d a8b8 8f3e 1a77 6abd
000002b0: d8e1 db3b 830c 4c3e 3862 1f3d 64b6 ce3d
000002c0: b84c 78bd 1cf8 473e f889 963d fc19 a83e
000002d0: 0bbb f73d 5025 d1bd a0ec 0ebc 98ec 12bd
000002e0: 94bf f4bd 064e 233e 2c22 ed3d 53d3 bc3d
000002f0: 6d93 253c 9dba 8a3e a0db b53e 10ff e1bc
00000300: e409 debd 22d5 8c3e 9938 c3bd b894 36bd
00000310: 405f 1d3d f6a0 d6bc 3f53 a93e da4c 213e
00000320: a9c4 da3d e02a fb3d 1833 323d 803e f13d
00000330: b4ca 7a3e 2843 8cbd 4813 be3d 48c8 623d
00000340: 0173 c03e 70ca e73c 2811 cc3d 30f8 f73d
00000350: 9c85 cc3d 9246 a5bd 98f5 efbd 08e3 773d
00000360: e075 2bbd a495 04bd c162 323d 50d7 d63d
00000370: 9238 163e 4041 3a3c 077a b63e 5073 b6bc
00000380: eb69 a03e 03cd dbbc 387d 323e 50bb ef3c
00000390: e0d5 a7bd e07d be3c 5d0d 903e 081b 8fbd
000003a0: f045 2d3e 4fdb 5cbd c0ce 033d 187c 573d
000003b0: b425 a83d 3a69 933c 0bc0 8b3e 3064 d23c
000003c0: b889 db3d 78d1 303d 28bb 193d 4044 8cbb
000003d0: 28f4 e4bd d858 783e 0a5e 7fbd d7f6 6a3e
000003e0: d496 d6bd eabd 303e d0f3 493d b66b 933d
000003f0: 803d 90bd 0072 d93c d061 543d 20ed 2abd

sequential_1/dense_9/MatMul f4 [64, 128]
-0.029079245 0.25341418 0.21935181 0.27898654 0.1616766 0.24406792 -0.09354543 0.02736485
0.015736878 -0.12249558 0.106940374 -0.028556854 0.19603911 -0.039710857 0.291706 -0.17750338
0.09342538 0.22013457 0.11437475 -0.013299642 0.0029818674 0.17255594 -0.09038619 -0.16234288
-0.11112831 -0.15790646 0.049529925 0.16324316 0.24798693 -0.057079323 -0.013435389 0.05142027
-0.14416097 0.25352886 -0.010320336 0.19779555 -0.08690992 -0.13530786 0.028473105 0.369245
-0.16132447 -0.17256251 0.26956713 0.08622136 0.0076313876 0.06480102 -0.10566679 0.12686937
0.15571721 -0.06335493 -0.05142028 -0.07660579 -0.04206032 0.03251478 -0.13301535 -0.045909718
0.25023562 -0.057611767 0.06828271 -0.078282334 -0.069078304 0.12639089 -0.011561266 -0.012006998
0.06927926 0.10023005 -0.10998307 0.1962532 0.096638426 0.07732114 -0.13821942 0.12300942
-0.08000977 0.0021544993 -0.10767042 -0.14279485 0.06381359 0.082232304 0.07112656 0.18012781
0.03375958 0.012282269 -0.08244128 -0.12047596 -0.057247132 -0.15951723 0.26417047 0.29074293
-0.063304715 0.042460952 0.1657678 0.29764116 -0.012255415 0.36391935 -0.06366466 -0.014684841
-0.16055006 -0.011558116 -0.050516788 -0.16694213 -0.14195767 0.19994134 0.224181 -0.04949026
0.17615819 0.107277945 0.11187831 -0.10900641 0.037297286 0.21486779 -0.15276648 -0.15436767
-0.13737884 0.16026938 -0.10119435 -0.09367836 0.04943514 -0.079343215 0.21750793 0.005167948
-0.014588073 -0.021596417 -0.04113309 0.09420808 -0.07143089 -0.041193027 -0.15643474 0.2272452
-0.025257558 -0.15853646 -0.060852334 -0.029958397 -0.120770186 -0.03506732 -0.16039252 0.04465252
-0.06641294 0.17136456 -0.1701917 0.11623566 -0.01038073 -0.04897751 0.028435335 -0.17567421
-0.17347853 -0.13010201 -0.13992742 -0.119715974 -0.027862981 -0.10910917 -0.17485796 0.04175286
-0.020024851 -0.030190587 0.028339714 -0.117529646 -0.054937318 0.14078431 -0.022404253 -0.07131272
0.07484944 0.046040878 0.0067647398 0.100756034 0.047632128 -0.033368587 0.13621338 0.07868488
-0.10905197 0.08183707 -0.043084323 0.0370633 0.050573602 -0.0024217218 0.086599514 0.11191924
-0.00204812 -0.086944945 0.10901122 -0.07876639 0.10599263 0.1332166 -0.054729283 -0.17204596
-0.17623565 0.015562683 0.08486743 -0.025359467 0.07684888 0.047207877 -0.016242728 0.14079513
0.14820825 0.06934644 0.0070302635 -0.077536836 -0.10170717 0.028439254 0.15465336 0.15632017
-0.1362375 0.13638867 -0.073322706 0.14833806 0.026272327 -0.017540246 -0.035564736 -0.11689913
-0.11373234 0.16282777 0.012895718 -0.0012919307 0.12105675 -0.010160252 0.06937286 -0.003426835
0.14533623 0.067187846 0.06352441 0.03911914 -0.13239585 0.13508858 0.010815218 0.012708545
0.10340549 0.04058282 -0.07196461 -0.05467976 -0.13028847 -0.021999016 -0.11894671 0.15609582
0.017438129 -0.067572735 -0.06546788 -0.106916524 0.027344838 0.007860854 0.14992283 -0.039517224
-0.13494223 0.06839527 0.07695778 0.15608932 -0.032462224 -0.11595723 -0.055058956 -0.121415205
-0.061794735 0.007901818 -0.06476908 -0.083116576 0.14127527 0.018178985 0.12055485 0.029841155
00000000: 9937 eebc 81bf 813e c39d 603e 53d7 8e3e
00000010: 8d8e 253e f1ec 793e bf94 bfbd 402c e03c
00000020: a0ea 803c f6de fabd 8e03 db3d 10f0 e9bc
00000030: 7abe 483e daa7 22bd 7d5a 953e 72c3 35be
00000040: ce55 bf3d f56a 613e 4f3d ea3d bee6 59bc
00000050: 6f6b 433b 81b2 303e 651c b9bd 363d 26be
00000060: 3d97 e3bd 3bb2 21be e4df 4a3d 3729 273e
00000070: 49f0 7d3e 02cc 69bd 1b20 5cbc 109e 523d
00000080: ef9e 13be 89ce 813e a016 29bc eb8a 4a3e
00000090: d4fd b1bd 258e 0abe 6e40 e93c ae0d bd3e
000000a0: 3e32 25be 3ab4 30be b404 8a3e d394 b03d
000000b0: b810 fa3b 66b6 843d d467 d8bd 0bea 013e
000000c0: 5574 1f3e 3bc0 81bd 129e 52bd 7fe3 9cbd
000000d0: 7147 2cbd 382e 053d 2d35 08be d40b 3cbd
000000e0: e21e 803e 51fa 6bbd ced7 8b3d 7d52 a0bd
000000f0: ed78 8dbd 9d6c 013e 776b 3dbc 00b9 44bc
00000100: 49e2 8d3d 6a45 cd3d ce3e e1bd 99f6 483e
00000110: 5eea c53d 8c5a 9e3d 6489 0dbe 5dec fb3d
00000120: 2adc a3bd 8032 0d3b 4f82 dcbd d038 12be
00000130: b3b0 823d 6969 a83d cdaa 913d 6d73 383e
00000140: 7c47 0a3d 923b 493c f9d6 a8bd 1abc f6bd
00000150: f87b 6abd 7c58 23be 5a41 873e 42dc 943e
00000160: e7a5 81bd 89eb 2d3d 09bf 293e 6c64 983e
00000170: f0ca 48bc a353 ba3e 9e62 82bd b098 70bc
00000180: 3c67 24be 415e 3dbc b1ea 4ebd e1f2 2abe
00000190: 5a5d 11be 6cbd 4c3e b48f 653e 4db6 4abd
000001a0: d062 343e 8ab4 db3d 7520 e53d c13e dfbd
000001b0: 0ac5 183d 4d06 5c3e d16e 1cbe 8f12 1ebe
000001c0: 0aad 0cbe a81d 243e fc3e cfbd 71da bfbd
000001d0: 807c 4a3d b27e a2bd 66ba 5e3e e457 a93b
000001e0: d002 6fbc f8ea b0bc 2c7b 28bd 2af0 c03d
000001f0: 5c4a 92bd 05ba 28bd 6e30 20be f7b2 683e
00000200: f0e8 cebc 6257 22be 4c40 79bd 506b f5bc
00000210: 5c56 f7bd c0a2 0fbd f03d 24be 90e5 363d
00000220: 8203 88bd 317a 2f3e bc46 2ebe f60c ee3d
00000230: f013 2abc a49c 48bd 38f1 e83c f1e3 33be
00000240: 5ba4 31be 7639 05be 2249 0fbe a62d f5bd
00000250: e840 e4bc a174 dfbd f70d 33be 0c05 2b3d
00000260: 280b a4bc 4052 f7bc b028 e83c 62b3 f0bd
00000270: f405 61bd c329 103e 2089 b7bc 670c 92bd
00000280: aa4a 993d 5c95 3c3d c0aa dd3b 2e59 ce3d
00000290: e819 433d 80ad 08bd 857b 0b3e 8a25 a13d
000002a0: a456 dfbd 329a a73d 3079 30bd b0cf 173d
000002b0: 4426 4f3d c0b5 1ebb 165b b13d ea35 e53d
000002c0: c039 06bb 3110 b2bd 4641 df3d 4650 a1bd
000002d0: aa12 d93d ef69 083e d02b 60bd d12c 30be
000002e0: 1e77 34be a0fa 7e3c face ad3d a8be cfbc
000002f0: f262 9d3d 0c5d 413d 780f 85bc 992c 103e
00000300: e7c3 173e 8205 8e3d 205e e63b a2cb 9ebd
00000310: d94b d0bd 70f9 e83c 735d 1e3e 6512 203e
00000320: d881 0bbe 79a9 0b3e 372a 96bd efe5 173e
00000330: 1039 d73c 90b0 8fbc 54ac 11bd d068 efbd
00000340: 80ec e8bd 53bc 263e 9048 533c 0056 a9ba
00000350: 9aec f73d 3077 26bc 5c13 8e3d c094 60bb
00000360: 05d3 143e c899 893d 1619 823d 643b 203d
00000370: c792 07be a954 0a3e 5032 313c 8037 503c
00000380: 42c6 d33d 2c3a 263d 2e62 93bd e2f7 5fbd
00000390: 576a 05be 4837 b4bc 559a f3bd 95d7 1f3e
000003a0: 68da 8e3c 9363 8abd 0614 86bd 0df7 dabd
000003b0: 4802 e03c d0ca 003c 5f85 193e d0dc 21bd
000003c0: 4c2e 0abe d212 8c3d 0a9c 9d3d e1d5 1f3e
000003d0: 1cf7 04bd fc7a edbd 8085 61bd 89a8 f8bd
000003e0: 7a1c 7dbd a076 013c a7a5 84bd 0639 aabd
000003f0: 77aa 103e 18ec 943c 76e5 f63d 7075 f43c

sequential_1/dense_10/MatMul f4 [32, 64]
0.028486392 0.2142089 -0.1509915 -0.08568684 0.08123528 0.08203144 -0.1923786 -0.12286602
-0.04572303 -0.004697029 0.2287197 0.14277571 0.26360682 0.14053929 -0.3817153 0.016605977
0.23855108 -0.047833197 -0.1207881 0.22522074 -0.17752953 0.06379856 -0.007928193 -0.04729575
-0.10510262 0.052975953 0.0969788 -0.14714633 -0.22895187 0.007134167 0.13652176 0.040621426
0.12937792 0.27973193 -0.20096534 -0.09575128 -0.08928932 -0.048319876 -0.16535607 -0.1672539
-0.07434785 0.12021273 0.04308698 0.17989117 -0.15634024 -0.03703894 0.18723798 0.14036074
0.20487434 -0.023697674 0.15258966 0.11758435 -0.23511301 -0.10894531 -0.06968507 0.16447794
-0.20634326 -0.2670694 0.22576113 -0.05577916 0.21103202 -0.21196096 0.28824526 0.116265655
0.0210808 0.19684446 0.07931167 0.05854338 0.2703013 0.15163906 0.17766023 -0.16461909
0.11916731 -0.15422857 0.32764465 0.009544767 0.2123245 -2.5451183e-05 -0.6621456 -0.06074829
0.20742768 -0.11494334 -0.24052262 -0.057487965 -0.17590821 0.22396925 0.081499815 0.12705141
-0.0029616135 -0.14034182 -0.23482041 -0.12610182 0.048847802 -0.22374403 -0.10662967 0.13755018
-0.17734027 0.2467312 -0.06345083 0.24433088 0.1404124 0.07310045 0.2087771 0.13320695
0.05233276 0.31629196 -0.13351975 -0.086278915 0.047712207 -0.21745849 -0.095587075 0.2900031
-0.0195745 0.14621913 0.10481843 0.23558432 -0.13222063 0.15946251 0.050809782 0.15428382
0.2271002 -0.036014292 -0.03646902 0.012148201 -0.12881371 0.2939674 0.17610161 0.16073771
-0.1993014 0.085877955 -0.012090981 -0.047205865 -0.13091654 0.12638319 0.12120658 -0.1528523
-0.16026494 -0.18252462 -0.15346897 -0.07094002 -0.06072094 -0.15946013 0.18380517 -0.22335511
0.0093171 0.09934037 0.09163618 0.144086 0.052337885 0.2194833 -0.23682892 0.12019032
0.21816766 0.23172355 -0.058829077 -0.109266214 -0.029571295 0.19337708 -0.24907392 0.14322782
-0.16164547 -0.033233758 -0.20504749 0.24419677 0.2285012 -0.18583429 0.21481974 -0.23841125
-0.21099967 -0.008695662 -0.20407486 -0.1869263 0.03329557 -0.15356368 0.077644646 0.11908001
0.08070254 0.2179293 0.090788424 0.092862844 -0.060137175 0.06462109 0.21567169 0.13625365
0.028279662 -0.25022486 -0.009272313 0.08986592 0.19321474 -0.08809948 0.019306613 0.07523286
-0.16031604 -0.09526926 -0.056747615 0.071621865 -0.045259286 0.1441946 0.24628848 0.23180862
0.06603979 -0.13167804 -0.22089319 0.22691575 -0.14881466 -0.18910116 -0.14068937 0.117928766
-0.10741405 0.20487623 0.06671667 0.12871909 0.019383833 -0.16783166 -0.16733265 -0.2135331
-0.21064295 -0.15154839 -0.12956531 -0.21316467 0.17447168 0.14411527 0.0017399433 0.09212625
-0.1780854 -0.10045491 0.19905716 0.16302735 -0.0243932 -0.15519571 -0.1467866 -0.2232548
0.1692903 -0.2378451 0.027983723 -0.033938766 -0.06040281 -0.18598121 -0.029664218 -0.011443377
0.017053159 -0.09003794 0.08100221 0.13490021 0.21599929 -0.05940503 -0.106562376 0.12496495
0.12416692 0.030578798 0.12408482 -0.041138113 0.19648266 0.12252175 -0.020538758 0.051686823
00000000: 4b5c e93c 9459 5b3e 849d 1abe 957c afbd
00000010: af5e a63d 1a00 a83d e5fe 44be 2ea1 fbbd
00000020: 1248 3bbd 89e9 99bb 7f35 6a3e cc33 123e
00000030: 79f7 863e 88e9 0f3e 3070 c3be 4209 883c
00000040: bc46 743e beec 43bd c05f f7bd 44a0 663e
00000050: 4dca 35be d2a8 823d 40e5 01bc 30b9 41bd
00000060: 0b40 d7bd 50fd 583d d29c c63d 87ad 16be
00000070: 5c72 6abe bbc5 e93b 5ccc 0b3e a762 263d
00000080: a57b 043e 0639 8f3e dcc9 4dbe 3f19 c4bd
00000090: 52dd b6bd 10eb 45bd 1a53 29be 9b44 2bbe
000000a0: b043 98bd 1732 f63d f97b 303d 6435 383e
000000b0: a817 20be 25b6 17bd 50bb 3f3e baba 0f3e
000000c0: 94ca 513e a021 c2bc 7740 1c3e 10d0 f03d
000000d0: 77c1 70be b81e dfbd 0cb7 8ebd e86c 283e
000000e0: a64b 53be 52bd 88be ed2d 673e b078 64bd
000000f0: c718 583e 4b0c 59be e294 933e b01c ee3d
00000100: a4b1 ac3c 9891 493e 286e a23d 2fcb 6f3d
00000110: ef64 8a3e 4547 1b3e 90ec 353e e891 28be
00000120: fe0d f43d 18ee 1dbe 0ac1 a73e a861 1c3c
00000130: 986b 593e 0080 d5b7 6082 29bf 33d3 78bd
00000140: ec67 543e 6a67 ebbd 904b 76be 8078 6bbd
00000150: 4821 34be 3258 653e 60e9 a63d c419 023e
00000160: a117 42bb c4b5 0fbe c374 70be d620 01be
00000170: a214 483d 281d 65be a860 dabd f4d9 0c3e
00000180: b098 35be 1ba7 7c3e 82f2 81bd e031 7a3e
00000190: 45c8 0f3e b0b5 953d aac9 553e 6767 083e
000001a0: e05a 563d 05f1 a13e 67b9 08be 00b3 b0bd
000001b0: e06d 433d 70ad 5ebe 28c3 c3bd 497b 943e
000001c0: b45a a0bc 78ba 153e 0cab d63d 043d 713e
000001d0: d864 07be 244a 233e eb1d 503d 94fc 1d3e
000001e0: f48c 683e b983 13bd 8a60 15bd 4009 473c
000001f0: bee7 03be e582 963e fb53 343e 6d98 243e
00000200: ab15 4cbe c8e0 af3d 4019 46bc f05a 41bd
00000210: fc0e 06be 986a 013e 283b f83d 5085 1cbe
00000220: 7e1c 24be bce7 3abe f826 1dbe 0049 91bd
00000230: 85b6 78bd 8449 23be 6c37 3c3e 34b7 64be
00000240: c0a6 183c f772 cb3d c0ab bb3d 488b 133e
00000250: 4060 563d 3bc0 603e 4883 72be 5826 f63d
00000260: 5867 5f3e f048 6d3e c2f6 70bd f7c6 dfbd
00000270: 803f f2bc a404 463e 3c0d 7fbe 50aa 123e
00000280: 6486 25be 1f20 08bd f8f7 51be b80e 7a3e
00000290: 38fc 693e 584b 3ebe b5f9 5b3e 1422 74be
000002a0: 4c10 58be 4078 0ebc 00f9 50be 9c69 3fbe
000002b0: f060 083d cc3f 1dbe 2804 9f3d 38e0 f33d
000002c0: 6047 a53d dc28 5f3e 48ef b93d e02e be3d
000002d0: 6652 76bd 1058 843d 0ad9 5c3e 1486 0b3e
000002e0: c0aa e73c 791d 80be e6ea 17bc a00b b83d
000002f0: 16da 453e 806d b4bd e728 9e3c b013 9a3d
00000300: e329 24be 881c c3bd 3070 68bd 7cae 923d
00000310: cd61 39bd c0a7 133e 0c33 7c3e 3d5f 6d3e
00000320: df3f 873d 9cd6 06be d331 62be 9a5c 683e
00000330: df62 18be bca3 41be e010 10be a384 f13d
00000340: e6fb dbbd 13cb 513e c0a2 883d f0ce 033e
00000350: d8ca 9e3c 10dc 2bbe 4059 2bbe 6ca8 5abe
00000360: c9b2 57be 802f 1bbe c5ac 04be d747 5abe
00000370: b4a8 323e f492 133e cf0e e43a b0ac bc3d
00000380: 055c 36be 4ebb cdbd a4d5 4b3e a4f0 263e
00000390: 40d4 c7bc a0eb 1ebe 3a4f 16be e89c 64be
000003a0: 705a 2d3e aa8d 73be 1f3e e53c 6003 0bbd
000003b0: f068 77bd dc71 3ebe 6002 f3bc 007d 3bbc
000003c0: 11b3 8b3c d065 b8bd 7de4 a53d 4823 0a3e
000003d0: eb2e 5d3e b052 73bd 603d dabd a0ed ff3d
000003e0: 3a4b fe3d 6380 fa3c 2f20 fe3d 7080 28bd
000003f0: c032 493e afec fa3d e640 a8bc 90b5 533d

sequential_1/dense_11/MatMul f4 [16, 32]
0.051666927 0.18344794 -0.335802 0.22405991 0.084098734 0.13299786 0.19789007 0.15871221
-0.09671004 0.36135098 -0.3356202 0.12018839 -0.041116953 0.132479 -0.53566504 -0.2675257
0.029943392 -0.24785377 0.19184415 0.19970027 0.153641 0.052252803 -0.019415554 0.18337843
-0.016967176 -0.10398496 -0.63130265 -0.17556179 -0.054129615 0.24731083 -0.35372275 0.25325108
-0.25530136 -0.15548314 -0.337346 0.26965478 0.08522764 -0.08062742 -0.1872104 0.14430298
0.1223588 -0.3300818 0.31956232 0.30969426 -0.34786853 0.37762886 -0.19130313 0.31341213
0.18431813 0.19975433 0.4355932 0.2602361 -0.13532813 -0.2122364 0.1464943 -0.073654555
-0.100091994 -0.20440935 -0.58498764 -0.31476548 -0.47636795 0.3172427 -0.2990544 -0.23547855
-0.0333576 -0.12372608 -0.1860832 0.13006808 0.32004467 0.51489425 0.054546773 -0.33882484
0.7009271 0.12094927 -0.11331818 0.28313342 -0.13830666 0.21160665 0.0993167 -0.31054088
0.09658606 0.24057223 -0.22247146 -0.09419251 -0.09095584 0.34379572 -0.7955429 -0.72690433
0.24537894 0.09976418 0.3526901 -0.3074727 -0.08590714 -0.42394754 -0.61897594 -0.5990748
0.32561547 0.12615508 -0.019191926 -0.090921804 0.119950995 -0.24713105 0.116535455 -0.1951718
0.7270129 0.035910152 -0.2017839 -0.20465463 -0.2073673 0.25163594 0.08435178 0.23412709
-0.20765862 0.07956036 -0.29536846 0.3249314 0.17573012 -0.30486593 0.20290178 -0.08270688
0.015066476 0.14373817 -0.14392443 0.32668525 0.082873814 0.23751436 0.21443243 0.24995428
0.040812567 -0.27537215 -0.1862905 -0.20981565 -0.09758849 -0.040698364 -0.33340576 -0.23796652
-0.16044925 -0.8523148 0.35568586 0.11922669 0.33144972 -0.51249087 -0.35845014 0.075968936
0.056763254 -0.27539173 -0.14419693 -0.094337285 -0.26526546 -1.2855107 -0.103897825 0.33667952
0.0622984 0.26636854 -0.034901045 0.0034131613 0.11614155 -0.06595029 -0.18687797 0.28503585
-0.13467555 -0.09868456 0.07394037 0.2715809 0.06722853 -0.014379415 -0.30360726 -0.15487227
-1.0177639 0.09123717 0.13993888 -0.34277806 -0.311207 0.12953874 0.3292059 -0.13570146
-0.25282335 0.16341388 -0.18082292 -0.1492182 0.23601548 0.29024243 -0.33050734 -0.25876176
0.19714317 -0.118226096 0.4301845 -0.1614759 0.42208862 -0.43088406 0.3668725 -0.13225985
-0.029667126 0.07954235 0.14947483 0.21727385 0.1377799 -0.26433262 -0.035842866 0.015295101
-0.22838484 -0.3485989 -0.40535063 -0.093730696 0.15065941 0.6062371 -0.15374991 0.16374308
-0.1004464 0.20300207 0.3316649 0.17583439 0.17061558 -0.061221488 0.037572864 -0.057796113
-0.08657383 0.0033229995 -0.45959675 -0.22129735 -0.3886855 -0.055552922 0.13879262 0.12275929
-0.31989008 -0.23127644 -0.06992525 0.34185952 0.17610884 0.13908863 -0.23329055 -0.32267773
-0.34318012 0.15272737 -0.30425084 0.27948257 0.12960872 0.017279714 -0.020868631 0.3160949
0.19286713 0.23500308 -0.18906182 -0.21537301 0.24425952 0.0021256336 -0.23179492 0.030695647
-0.07160581 0.21843635 -0.32855728 -0.07410234 -0.23052955 -0.07696435 0.08814323 -0.05783036
00000000: b3a0 533d c7d9 3b3e 3dee abbe f66f 653e
00000010: f53b ac3d 9730 083e b2a3 4a3e 7485 223e
00000020: ea0f c6bd ff02 b93e 69d6 abbe 5525 f63d
00000030: 406a 28bd 93a8 073e 5821 09bf 21f9 88be
00000040: d84b f53c 61cd 7dbe cb72 443e 3a7e 4c3e
00000050: 1154 1d3e 0907 563d 5e0d 9fbc 8ec7 3b3e
00000060: bffe 8abc 11f6 d4bd 0d9d 21bf 78c6 33be
00000070: 04b7 5dbd 0d3f 7d3e 261b b5be 20aa 813e
00000080: dcb6 82be f936 1fbe 9db8 acbe 3110 8a3e
00000090: d48b ae3d fd1f a5bd 15b4 3fbe 29c4 133e
000000a0: 4097 fa3d 7b00 a9be ac9d a33e 3f90 9e3e
000000b0: d31b b2be 9258 c13e f8e4 43be 8e77 a03e
000000c0: e4bd 3c3e 668c 4c3e 1206 df3e ab3d 853e
000000d0: 7593 0abe 8054 59be 9a02 163e 33d8 96bd
000000e0: 08fd ccbd af50 51be c0c1 15bf f128 a1be
000000f0: 80e6 f3be a36d a23e a91d 99be 4a21 71be
00000100: fba1 08bd 1964 fdbd 988c 3ebe 9130 053e
00000110: e5dc a33e 1cd0 033f 706c 5f3d 737a adbe
00000120: f56f 333f 40b4 f73d 5d13 e8bd ddf6 903e
00000130: 43a0 0dbe 6aaf 583e 8e66 cb3d 37ff 9ebe
00000140: eace c53d 9158 763e 8fcf 63be 01e8 c0bd
00000150: 0e47 babd fe05 b03e b3a8 4bbf 6716 3abf
00000160: 9e44 7b3e 2a51 cc3d cc93 b43e 106d 9dbe
00000170: 15f0 afbd a70f d9be 3575 1ebf f75c 19bf
00000180: 12b7 a63e cc2e 013e 6338 9dbc 3635 babd
00000190: dea8 f53d ec0f 7dbe 24aa ee3d 1edb 47be
000001a0: 841d 3a3f 8616 133d 70a0 4ebe fc90 51be
000001b0: 1858 54be 6dd6 803e a0c0 ac3d 03bf 6f3e
000001c0: 76a4 54be 8bf0 a23d 893a 97be 695d a63e
000001d0: 99f2 333e 6317 9cbe 7cc5 4f3e 3a62 a9bd
000001e0: 61d9 763c 1930 133e ed60 13be 4a43 a73e
000001f0: bfb9 a93d f736 733e 2d94 5b3e 04f4 7f3e
00000200: 142b 273d 94fd 8cbe f0c2 3ebe ead9 56be
00000210: 79dc c7bd 54b3 26bd 29b4 aabe 7fad 73be
00000220: cf4c 24be 4d31 5abf 751c b63e 1f2d f43d
00000230: c7b3 a93e 9a32 03bf c786 b7be 9a95 9b3d
00000240: 9680 683d 2500 8dbe 5ca8 13be e833 c1bd
00000250: e0d0 87be 9d8b a4bf 62c8 d4bd 4261 ac3e
00000260: 9b2c 7f3d 7561 883e 66f4 0ebd 58af 5f3b
00000270: 9fdb ed3d f210 87bd f05c 3fbe 38f0 913e
00000280: 63e8 09be 211b cabd 0c6e 973d a70c 8b3e
00000290: 1daf 893d a397 6bbc 6972 9bbe d696 1ebe
000002a0: 1646 82bf 8eda ba3d 234c 0f3e 9b80 afbe
000002b0: 8656 9fbe cea5 043e ad8d a83e 53f5 0abe
000002c0: 1072 81be f855 273e a529 39be a8cc 18be
000002d0: 0bae 713e a89a 943e 4238 a9be 6c7c 84be
000002e0: e6df 493e 8620 f2bd 2541 dc3e f059 25be
000002f0: 001c d83e d69c dcbe b6d6 bb3e 206f 07be
00000300: 7908 f3bc 19e7 a23d ee0f 193e 097d 5e3e
00000310: 2d16 0d3e 9b56 87be f8cf 12bd 4e98 7a3c
00000320: b7dd 69be 8e7b b2be 1e8a cfbe e1f5 bfbd
00000330: 7646 1a3e 5b32 1b3f 9e70 1dbe 44ac 273e
00000340: d8b6 cdbd c6df 4f3e fbcf a93e ee0d 343e
00000350: dab5 2e3e 62c3 7abd 01e6 193d 9ebb 6cbd
00000360: 9f4d b1bd aec6 593b 4450 ebbe c69b 62be
00000370: c901 c7be 768b 63bd a71f 0e3e 3969 fb3d
00000380: a2c8 a3be bbd3 6cbe f834 8fbd 3608 af3e
00000390: e055 343e 406d 0e3e b8e3 6ebe 0436 a5be
000003a0: 4eb5 afbe 9064 1c3e c4c6 9bbe 5718 8f3e
000003b0: 26b8 043e 308e 8d3c b1f4 aabc 31d7 a13e
000003c0: f67e 453e a6a4 703e 6c99 41be be8a 5cbe
000003d0: 2b1f 7a3e 374e 0b3b a65b 6dbe 7075 fb3c
000003e0: 11a6 92bd c7ad 5f3e a938 a8be f8c2 97bd
000003f0: f00f 6cbe 7c9f 9dbd 7084 b43d 87df 6cbd

sequential_1/dense_12/MatMul f4 [8, 16]
-0.07174506 0.099646315 0.04545009 0.0545359 -0.12718031 -0.2599824 -0.17416295 0.038841367
0.41826165 0.14693397 0.3739869 0.020424396 0.028132439 0.40370882 0.4772489 0.5276485
0.3532231 -0.37100154 -0.5849457 0.24812695 -0.05497928 0.46147326 -0.18943542 -0.03449287
0.36884 0.032886174 -0.08279814 -0.12493541 0.31720304 0.04127129 0.43925333 -0.6418535
0.06452972 -0.2039091 -0.7705861 -0.22510003 -0.6509423 0.5034399 0.32015032 0.28827873
0.37200412 0.61108595 -0.34013537 -0.1077065 0.06370664 -0.17823003 -0.14712965 -0.13747312
0.45535296 0.18119352 0.27281544 0.08264621 -0.33165362 0.13795866 0.42134258 0.49339285
-0.30272174 -0.3420086 -0.40530497 0.20215139 -0.16853559 0.26584974 -0.25844455 0.29239368
0.1948126 0.3464225 0.80618924 -0.38644212 0.03670721 0.53108656 0.3553702 -0.15641299
-0.0012538228 0.43763843 1.2258685 0.3385726 0.4161663 0.4179216 -0.48631525 -0.18480603
-0.103755094 -0.24164891 -0.42652255 -0.23896135 0.34489885 0.20430171 0.13997853 0.35533002
-0.35852724 0.059173543 -0.34194192 0.13392152 -0.16189253 -0.16944385 -0.06068802 -0.44054353
-0.3093054 0.43664145 0.408036 -0.07570276 -0.12874758 -0.5034 0.4244579 0.26104712
0.11472016 0.17706583 -0.15639631 -0.5191065 -0.32778263 -0.046437144 -0.0522846 -0.32943457
-0.2440342 -0.14819562 0.30825457 -0.40331972 0.42756867 -0.45102763 -0.18071413 0.20444107
0.07850106 -0.08566013 0.34190738 -0.54951584 -0.41516018 -0.17181826 0.26781285 -0.2980901
00000000: 13ef 92bd 5e13 cc3d e029 3a3d 0961 5f3d
00000010: 8e3b 02be 6a1c 85be c657 32be 2018 1f3d
00000020: 6426 d63e dc75 163e 367b bf3e 1051 a73c
00000030: 0076 e63c ecb2 ce3e f859 f43e f913 073f
00000040: a8d9 b43e eaf3 bdbe 00bf 15bf fe14 7e3e
00000050: f431 61bd 3946 ec3e 5cfb 41be 6548 0dbd
00000060: 99d8 bc3e a7b3 063d 1292 a9bd 23de ffbd
00000070: 7068 a23e 160c 293d d0e5 e03e 8350 24bf
00000080: 2828 843d 8ccd 50be 2145 45bf 9f80 66be
00000090: 28a4 26bf 70e1 003f beea a33e 4599 933e
000000a0: 5377 be3e 2170 1c3f 3926 aebe 3a95 dcbd
000000b0: a078 823d ef81 36be 28a9 16be c1c5 0cbe
000000c0: 0624 e93e cb8a 393e 77ae 8b3e 6b42 a93d
000000d0: 81ce a9be 0945 0d3e 37ba d73e fd9d fc3e
000000e0: 58fe 9abe c01b afbe 2284 cfbe c600 4f3e
000000f0: 9894 2cbe 751d 883e d852 84be a0b4 953e
00000100: f47c 473e 4a5e b13e 6b62 4e3f bedb c5be
00000110: 4d5a 163d 4af5 073f 15f3 b53e ba2a 20be
00000120: 5057 a4ba 2512 e03e 42e9 9c3f 6359 ad3e
00000130: c013 d53e d2f9 d53e 50fe f8be cb3d 3dbe
00000140: 8d7d d4bd d072 77be 2a61 dabe 49b2 74be
00000150: 9596 b03e 7834 513e 8856 0f3e d1ed b53e
00000160: e290 b7be f55f 723d 0313 afbe b922 093e
00000170: 28c7 25be b082 2dbe 0094 78bd ec8e e1be
00000180: 475d 9ebe 788f df3e 18ea d03e 0c0a 9bbd
00000190: 68d6 03be d3de 00bf 8c52 d93e f8a7 853e
000001a0: 67f2 ea3d bf50 353e 5b26 20be 2ae4 04bf
000001b0: 20d3 a7be e034 3ebd 6028 56bd a6ab a8be
000001c0: 1ae4 79be 98c0 17be 8bd3 9d3e ec7f cebe
000001d0: 48ea da3e 18ed e6be 200d 39be 0059 513e
000001e0: 2ac5 a03d 946e afbd 7c0e af3e 12ad 0cbf
000001f0: e08f d4be 20f1 2fbe c41e 893e 449f 98be

sequential_1/dense_13/MatMul f4 [5, 8]
0.3697881 -0.5442135 -0.7381446 -0.3318663 0.3472637 0.04366531 -0.5215605 -0.45772266
-0.427143 0.016642328 0.19454211 0.4625109 0.34763822 0.4294513 -0.045869786 -0.14577684
0.20308933 0.4353382 0.46588278 -0.90323275 -0.5421311 0.43957618 -0.319896 -0.26797438
0.7277598 -0.73828554 -0.26329112 0.0041519683 -1.2974356 -0.15604013 -0.009766706 -0.16613339
0.482337 -0.12860994 -1.1735646 0.7180112 -0.6591383 0.56752515 0.2892178 0.10995691
00000000: de54 bd3e 9351 0bbf 0bf7 3cbf 61ea a9be
00000010: 8ccc b13e 65da 323d fd84 05bf a05a eabe
00000020: 7db2 dabe 7e55 883c 0c36 473e 3bce ec3e
00000030: a3fd b13e 0ae1 db3e f5e1 3bbd 8646 15be
00000040: a6f6 4f3e a6e4 de3e 3088 ee3e 433a 67bf
00000050: 1bc9 0abf 2110 e13e 69c9 a3be f033 89be
00000060: 774e 3a3f 4800 3dbf 18ce 86be 3c0d 883b
00000070: 5f12 a6bf fcc8 1fbe 8904 20bc df1e 2abe
00000080: e0f4 f63e 53b2 03be 5d37 96bf 95cf 373f
00000090: 4abd 28bf 5449 113f 5b14 943e 1731 e13d
